Assets/MoveToGoal.onnx (onnx, 74955 bytes, 7 tensors)

network_body._body_endoder.seq_layers.0.weight f4 [128, 9]
0	0x3ddc046e	0.107430324
1	0x3e5d3336	0.21601567
2	0xbeebd047	-0.4605734
3	0x3e2ed1fc	0.1707229
4	0x3cfdfd17	0.031004472
5	0x3dce9f6b	0.10089
6	0xbe62dc30	-0.22154307
7	0x3e099c36	0.13438496
8	0x3e1c66e3	0.15273623
9	0xbdf6bdec	-0.120479435
10	0xbdedd90a	-0.116136625
11	0x3d8fea0c	0.07027063
12	0x3e95cf45	0.29259697
13	0xbdafe134	-0.08587876
14	0x3ed033da	0.4066456
15	0x3ea58964	0.32331383
16	0xbc56bcf4	-0.013106573
17	0x3d5bffda	0.053710796
18	0xbeeeb65a	-0.46623498
19	0x3daab327	0.08334952
20	0x3e2dc83f	0.16970919
21	0x3e2a9bdd	0.1666102
22	0x3ef08d0e	0.46982616
23	0x3ed9810c	0.42481267
24	0xbd2102de	-0.039309375
25	0x3e4129b8	0.1886357
26	0xbbd1d128	-0.006403107
27	0xbe8af3b6	-0.27139062
28	0x3e8e2758	0.27764392
29	0x3ec57709	0.3856738
30	0xbcec9d21	-0.028883519
31	0x3f00c953	0.50307196
32	0x3e918113	0.28418788
33	0x3e48622f	0.19568704
34	0xbf260983	-0.64858264
35	0x3de63e8f	0.11242401
36	0xbe9fba69	-0.31196907
37	0x3cd0e241	0.025498511
38	0x3d87bba7	0.06627589
39	0x3d421f73	0.047393274
40	0x3daa34b8	0.083108366
41	0x3e0feb65	0.1405464
42	0xbef997ae	-0.48748535
43	0xbe399af4	-0.18125516
44	0xbebc7056	-0.36804456
45	0x3cb1500c	0.021644615
46	0x3f030601	0.51181036
47	0xbf0d7228	-0.55252314
48	0xbe2d7b85	-0.1694165
49	0x3e9f9e70	0.31175566
50	0xbe3e3068	-0.18573153
51	0xbe9ebba8	-0.31002545
52	0xbd8ab01b	-0.06771871
53	0x3e6f4637	0.23366629
54	0x3db1fea2	0.086911455
55	0x3da413c4	0.080115825
56	0xbd8713dc	-0.06595585
57	0x3e0fa000	0.14025879
58	0x3e6b6138	0.22986305
59	0xbe0185f7	-0.1264876
60	0xbee7ff55	-0.4531199
61	0xbf1a05e9	-0.6016527
62	0xbe48154d	-0.19539376
63	0x3e428d52	0.18999222
64	0xbceac353	-0.028657591
65	0x3eab9820	0.335145
66	0xbc2f90d2	-0.01071568
67	0x3ea7b2e6	0.32753676
68	0x3c560a2e	0.01306395
69	0x3e1362fd	0.1439323
70	0x3de6afb7	0.11263984
71	0xbd643275	-0.055712182
72	0x3de654d3	0.11246648
73	0xbd5e13e2	-0.05421818
74	0xbd6803f8	-0.05664441
75	0xbe6b0031	-0.22949292
76	0x3edb749f	0.42862412
77	0x3c999c26	0.018751215
78	0x3ec366aa	0.38164264
79	0xbeca8cf0	-0.39560652
80	0xbd73c818	-0.059516996
81	0xbe7df4b2	-0.24800375
82	0xbe813606	-0.2523653
83	0xbce6add6	-0.028159063
84	0x3ef10c7e	0.47079843
85	0x3e7ccc05	0.24687202
86	0xbe79fcde	-0.24412867
87	0xbf01eb13	-0.5074932
88	0x3eaecd4a	0.34140998
89	0x3f04afd1	0.51830775
90	0xbeb78bd7	-0.35848877
91	0xbdbe46c4	-0.09290841
92	0x3eae7a73	0.34077796
93	0x3dd59771	0.10429276
94	0x3e442660	0.19155264
95	0xbf021031	-0.50805956
96	0xbe7bec41	-0.24601842
97	0xbcd9dd0f	-0.026594667
98	0x3f099210	0.537385
99	0xbe453e49	-0.19262041
100	0xbe337c7b	-0.17527954
101	0x3e813d01	0.25241855
102	0x3dc067b2	0.09394778
103	0x3e19b55c	0.1501059
104	0x3e6cb1cc	0.23114699
105	0xbdb44b47	-0.088034205
106	0x3ec026e7	0.3752968
107	0xbcc6a69a	-0.024249364
108	0xbd6aecb8	-0.05735466
109	0x3e20c610	0.15700555
110	0xbc8fca53	-0.01755253
111	0xbe8d5b22	-0.2760859
112	0xbec7ffc3	-0.39062318
113	0x3f01eb2d	0.50749475
114	0x3dd9c635	0.10633508
115	0x3db4fa3c	0.08836791
116	0xbd24503a	-0.040115573
117	0xbe2d320d	-0.16913624
118	0x3dbece49	0.093166895
119	0xbf0a4a56	-0.5401968
120	0x3ed401de	0.41407675
121	0x3ee5ae26	0.44859427
122	0xbeedd4ac	-0.46451318
123	0x3ec63549	0.38712528
124	0xbe86dd5c	-0.2634076
125	0xbd7d4a01	-0.061838154
126	0x3ec2dd25	0.38059345
127	0xbdfed237	-0.12442439
128	0x3ee25f5a	0.44213372
129	0xbf10c3c8	-0.5654874
130	0xbe901a51	-0.28145078
131	0x3daa0edd	0.08303616
132	0x3e94b836	0.29046792
133	0x3e9ea36c	0.30984056
134	0xbe508c4f	-0.20366023
135	0x3e709ecc	0.23498076
136	0xbe5297a9	-0.20565666
137	0x3d0e2af6	0.03470894
138	0x3f0a316f	0.5398168
139	0x3d9e18a4	0.077195436
140	0x3f1c8a5d	0.61148626
141	0x3cd39fe6	0.025833081
142	0x3ed45ccf	0.41477057
143	0xbd6687d4	-0.05628188
144	0xbf015cf3	-0.50532454
145	0xbd7fd922	-0.062462933
146	0x3dcf46b1	0.10120905
147	0xbea6c78a	-0.3257411
148	0xbe225c76	-0.15855584
149	0xbd5724ad	-0.05252521
150	0xbdd9452c	-0.106088966
151	0x3cda7345	0.026666293
152	0xbf158e2f	-0.5842008
153	0x3f0eb131	0.5573912
154	0x3e97a764	0.29619896
155	0x3d8fcb6b	0.07021221
156	0xbd7ade9b	-0.06124745
157	0x3e01a77e	0.1266155
158	0x3daba56d	0.08381162
159	0x3f0bd53a	0.5462223
160	0xbd893615	-0.066997685
161	0xbe8c0394	-0.2734648
162	0xbeb56815	-0.3543097
163	0x3e58f867	0.21188508
164	0x3efeb367	0.49746248
165	0xbe7958c7	-0.24350272
166	0x3ef16b69	0.4715226
167	0x3eb8eea9	0.36119583
168	0xbf9c139d	-1.2193485
169	0x3d042b14	0.032267645
170	0xbeff4dfb	-0.49864182
171	0x3b8b2fb3	0.0042476295
172	0x3e614cce	0.22001955
173	0x3eaadef9	0.3337324
174	0x3ea67d6e	0.3251757
175	0xbd4f5904	-0.050622
176	0xbeb13fb1	-0.34618905
177	0xbe1017d4	-0.1407159
178	0xbd70fe7a	-0.058836438
179	0x3ea51027	0.32238886
180	0xbe892343	-0.26784715
181	0x3ed1b5bf	0.40958974
182	0x3e269db7	0.16271101
183	0xbe116533	-0.1419876
184	0x3ee081e4	0.438491
185	0x3ee0752f	0.43839404
186	0xbe8279bf	-0.2548351
187	0x3eabd83c	0.3356341
188	0x3e47ffee	0.19531223
189	0xbe21e356	-0.15809378
190	0xbe90405c	-0.28174102
191	0xbe659567	-0.22420274
192	0x3ceaa373	0.028642392
193	0x3ea586a7	0.32329294
194	0xbe55148a	-0.20808616
195	0xbe38f28e	-0.18061277
196	0xbf2327c3	-0.63732547
197	0xbdc5bf07	-0.09655576
198	0x3ee50b28	0.44735074
199	0xbdc95184	-0.09830001
200	0xbe87e3c6	-0.26540965
201	0x3e43e070	0.19128585
202	0x3dcc6c04	0.0998154
203	0x3e230daa	0.15923181
204	0xbcba3b67	-0.022733403
205	0xbec62e23	-0.38707075
206	0x3d960a75	0.07326213
207	0xbe739c33	-0.23790054
208	0x3e05f5da	0.13082066
209	0x3ebaa4c5	0.36453834
210	0xbe52a627	-0.20571195
211	0x3d85dbf8	0.06536096
212	0x3e51c0d2	0.20483711
213	0x3ecfb74d	0.40569535
214	0xbde697a6	-0.112593934
215	0x3d72c32b	0.059268158
216	0xbf229e8f	-0.6352319
217	0x3e08d353	0.13361864
218	0x3da545ec	0.08069977
219	0x3ebf6bbf	0.3738689
220	0x3ee0fb7d	0.4394187
221	0xbe2dbd33	-0.16966705
222	0xbf06d296	-0.5266508
223	0x3f08c9e0	0.53433037
224	0xbe232a92	-0.15934208
225	0x3e49e1d6	0.19715056
226	0xbd8bb089	-0.06820781
227	0x3e1e091e	0.15433165
228	0x3d851b18	0.06499308
229	0x3ed27c98	0.41110682
230	0xbe7a2943	-0.24429803
231	0xbecbcb70	-0.39803648
232	0xbf05432f	-0.5205564
233	0xbf4493ae	-0.7678784
234	0x3ea9a462	0.33133227
235	0xbea25c87	-0.31711218
236	0xbed4b698	-0.41545558
237	0xbe9731da	-0.2953022
238	0xbf0387d9	-0.5137916
239	0xbe97598c	-0.29560506
240	0x3eedeec1	0.46471217
241	0x3f17e995	0.5934079
242	0x3f843588	1.0328836
243	0xbe162a49	-0.14664568
244	0x3f0fc67c	0.5616224
245	0xbf0f88fe	-0.5606841
246	0x392397ef	0.00015601491
247	0xbe0e4f35	-0.13897403
248	0xbd2480b3	-0.0401618
249	0x3e18e2a9	0.14930214
250	0xbedca0bb	-0.43091378
251	0x3c852fc7	0.016258134
252	0x3d9393ad	0.07205901
253	0x3d639e2d	0.05557077
254	0xbe88602b	-0.2663587
255	0x3e8c4303	0.27394876

network_body._body_endoder.seq_layers.0.bias f4 [128]
0	0x3ba16e97	0.0049265134
1	0x3d5b91fb	0.053606015
2	0x3c710148	0.014709778
3	0x3d6ccc0f	0.057811793
4	0xbd807da6	-0.062739655
5	0x3c40d714	0.011770029
6	0x3b6d67db	0.0036225233
7	0x3c289287	0.010288841
8	0x3d101454	0.035175636
9	0x3cce859a	0.02521019
10	0x3d347ab8	0.044062346
11	0x3d9b5781	0.075850494
12	0x3ca4f4ae	0.020136204
13	0xbc49dd4d	-0.012320829
14	0x3d81fd04	0.06347087
15	0x3dcf5214	0.10123077
16	0x3cb10074	0.021606661
17	0x3a17a941	0.00057854137
18	0x3c784d1a	0.015155101
19	0x3d5f788f	0.054558333
20	0x3d268cef	0.04066175
21	0x3c5b81d3	0.013397652
22	0xbd028b5a	-0.031871177
23	0xbca04e98	-0.019568726
24	0x3d260994	0.04053648
25	0x3d12498a	0.035714664
26	0xbb878c8d	-0.004136628
27	0x3b8527cc	0.004063582
28	0x3c075dec	0.008262139
29	0x3c9e9853	0.019359743
30	0x3da60cc8	0.081079066
31	0xbd042638	-0.03226301
32	0xbc04df10	-0.008109823
33	0xbc9081a2	-0.017639939
34	0xbc80ebd5	-0.015737453
35	0x3bb39481	0.0054803495
36	0xbbbb6f5b	-0.0057200617
37	0x3c91c7f1	0.017795535
38	0x3d8c299c	0.06843874
39	0x3d3cdc46	0.046108507
40	0xbd37700b	-0.044784587
41	0x3d7825e2	0.060583003
42	0x3d180660	0.037115455
43	0x3d67b63d	0.05657028
44	0x3b442d4d	0.0029934228
45	0xbcd2ccbf	-0.025732396
46	0x3d964171	0.07336701
47	0xbc67dbc5	-0.014151518
48	0xbb8da4d9	-0.00432263
49	0x3ca00ccc	0.019537352
50	0x3db430af	0.08798348
51	0x3cd2eb81	0.025747063
52	0xbd2962db	-0.04135404
53	0xbba3f03e	-0.0050030043
54	0xbc6a21e3	-0.014290306
55	0xbd18a6bc	-0.037268385
56	0x3c1aed2b	0.009455959
57	0x3cdf3796	0.027248185
58	0x3db160f1	0.08661068
59	0xbc733a9a	-0.014845515
60	0xbbf664fc	-0.0075193625
61	0x3c9ee2d7	0.019395275
62	0x3d22566d	0.039633203
63	0x3c17e867	0.009271718
64	0x3dd1121d	0.10208533
65	0x3c8089a0	0.015690625
66	0xbcb1ba8c	-0.021695398
67	0xbbc9e395	-0.006161163
68	0x3d184ba7	0.037181523
69	0x3cd8c3f9	0.026460635
70	0x3c2aebdd	0.010432211
71	0xbd28674a	-0.04111413
72	0x3b8c434d	0.004280484
73	0x3ca2e408	0.019884124
74	0x3d47d7f6	0.04878994
75	0x3c1480dd	0.0090639265
76	0xbb32876c	-0.0027241362
77	0x3d1fdcf9	0.039029095
78	0x3d4a0415	0.0493203
79	0xbc4f8c88	-0.012667783
80	0x3d08b7c2	0.03337837
81	0x3ccb0428	0.024782255
82	0xbcf350d8	-0.029701635
83	0xbd1760ab	-0.036957424
84	0x3cd5e9a6	0.026112389
85	0xbc8c390b	-0.017117044
86	0xbc722528	-0.014779367
87	0xbd08f8ea	-0.033440508
88	0x3c2e982c	0.010656398
89	0x3cd6fa40	0.026242375
90	0x3c80d89e	0.015728291
91	0xbbadcfbd	-0.0053043053
92	0x3d15bb40	0.03655553
93	0x3da6bcce	0.081414804
94	0x3cc19783	0.023631817
95	0x3d933de2	0.071895376
96	0xbc6be117	-0.014396927
97	0xb89d1355	-7.489944e-05
98	0x3c75f822	0.015012773
99	0xbd16f967	-0.036858942
100	0x3cf82a25	0.030293534
101	0x3d7552f7	0.059893575
102	0xbc990d6b	-0.018683156
103	0xbc350f6a	-0.011051038
104	0xbd14a81c	-0.036293134
105	0xbd177db2	-0.036985107
106	0x3c933716	0.017970603
107	0x3d214ed3	0.039381813
108	0xbc98c39e	-0.018647965
109	0x3cd77e21	0.02630526
110	0x3d8a8935	0.067644514
111	0xbcf42a42	-0.029805306
112	0x3dd5feaf	0.10448968
113	0xbb35d24e	-0.002774376
114	0xbcd921ab	-0.026505312
115	0x3d26e287	0.040743377
116	0xbc8f1c60	-0.017469585
117	0x3c971c3d	0.018446082
118	0x3a7d929f	0.00096730323
119	0x3bcbfe30	0.00622537
120	0x3ce420b2	0.027847622
121	0x3c1cd5eb	0.009572486
122	0x3cad9757	0.021190329
123	0x3cffe8f0	0.031239003
124	0x3c478557	0.012177787
125	0xbc9b319b	-0.018944552
126	0x3c8d5f9c	0.017257504
127	0x3d004aa5	0.031321187

network_body._body_endoder.seq_layers.2.weight f4 [128, 128]
0	0x3c97b938	0.018520936
1	0x3e10fd5e	0.14159152
2	0x3dc9809e	0.09838985
3	0xbcc1a4a0	-0.02363807
4	0xbd8f6c9d	-0.07003138
5	0x3dfa7cf2	0.12230863
6	0xbd3ad3b2	-0.045612045
7	0x3d14c67f	0.036322113
8	0xbe1668f8	-0.1468848
9	0xbd9e1783	-0.07719328
10	0xbd6feed3	-0.05857737
11	0x3dd09897	0.10185354
12	0x3d1be245	0.038057584
13	0x3ca0b4f3	0.019617533
14	0xbe4f5e1e	-0.20250747
15	0xbd38c02a	-0.045105137
16	0xbc802e01	-0.015646936
17	0x3e44bda4	0.19212967
18	0x3c7238f9	0.014784091
19	0x3da4cc8b	0.08046826
20	0x3e3b8148	0.18311036
21	0xbe415f73	-0.18884067
22	0xbde3ed4f	-0.111292474
23	0x3dc9292b	0.09822305
24	0xbd9bf3d9	-0.076148696
25	0xbe218561	-0.15773536
26	0xbda64e9a	-0.08120461
27	0x3d8ed8f4	0.06974974
28	0x3dba791d	0.09105132
29	0xbc52b8c2	-0.0128614325
30	0x3df6a393	0.12042918
31	0x3dcbbc0a	0.09947975
32	0xbac9bf0c	-0.0015392019
33	0xbdeab7f3	-0.11460867
34	0xbdc858b2	-0.09782542
35	0xbd91a3f9	-0.071113534
36	0x3c20881d	0.009798077
37	0xbdd5d0fc	-0.10440251
38	0xbd295382	-0.041339405
39	0xbb853f1b	-0.0040663606
40	0x3d39d4d6	0.04536899
41	0xbe2f21b6	-0.17102703
42	0xbb61e2f6	-0.0034467555
43	0x3e0a2deb	0.13494079
44	0xbc4af0fc	-0.012386557
45	0xbdadc616	-0.084850475
46	0x3e3d7e85	0.18505295
47	0x3d257eab	0.040404003
48	0x3d683034	0.056686595
49	0xbc493fc9	-0.012283274
50	0x3d794b6e	0.06086295
51	0x3ce0717a	0.02739786
52	0x3e2e7d88	0.17040074
53	0xbdb2da12	-0.08733
54	0x3de2fd47	0.11083465
55	0x3ca80a14	0.020512618
56	0xbdbf7eaf	-0.09350335
57	0xbdb1dc32	-0.08684577
58	0x3dc329cc	0.095294565
59	0xbdadd072	-0.084870234
60	0x3db324a3	0.08747222
61	0xbd760928	-0.060067326
62	0xbe1e4823	-0.15457205
63	0x3dca7677	0.098858766
64	0x3c922305	0.017838964
65	0x3d3985c1	0.045293573
66	0x3cd243cf	0.0256671
67	0x3d30a40f	0.04312521
68	0xbdd18531	-0.10230482
69	0xbd7c549c	-0.061604127
70	0x3d640005	0.05566408
71	0x3bf1a666	0.0073745726
72	0x3d363fe6	0.044494532
73	0xbdc31814	-0.09526077
74	0x3e034bfa	0.12821952
75	0xbd874e02	-0.06606676
76	0xbd773635	-0.06035443
77	0x3df40d99	0.11916656
78	0x3da47ec3	0.080319904
79	0xbe4c3c33	-0.19944839
80	0x3e275cdd	0.16344018
81	0x3dc8ac70	0.09798515
82	0xbcfcc231	-0.030854316
83	0x3e00f7ce	0.1259453
84	0x3d5652a4	0.052324906
85	0x3d58b28c	0.05290465
86	0xbd6368da	-0.055519916
87	0x3de0586c	0.10954365
88	0xbd5f127c	-0.054460987
89	0x3d93b9c6	0.07213168
90	0x3d6167e6	0.055030726
91	0xbdf6ccce	-0.12050782
92	0x3d54c77f	0.051948067
93	0x3d8c2f09	0.06844909
94	0xbdb2bc3e	-0.087273106
95	0x3e86d179	0.2633169
96	0xbcca78b2	-0.024715755
97	0xbd03c5f6	-0.032171212
98	0x3d9df293	0.07712283
99	0x3bfd4858	0.0077295713
100	0xbdc9bb60	-0.09850192
101	0xbd6717b7	-0.0564191
102	0xbd4fac05	-0.05070116
103	0x3e1e7614	0.1547473
104	0x3d0e3c97	0.03472575
105	0xbc87888c	-0.016544603
106	0x3ca76b25	0.020436833
107	0x3d907234	0.070530325
108	0xbe13e65f	-0.14443348
109	0xbd8130d8	-0.06308144
110	0xbe1c84e2	-0.15285066
111	0xbd5009e6	-0.05079069
112	0x3d6dbadc	0.05803953
113	0xbdb160b5	-0.086610235
114	0xbc82030a	-0.01587059
115	0xbe029bac	-0.12754697
116	0xbdd7b300	-0.105321884
117	0x3c844e8b	0.016150733
118	0x3d90ce26	0.0707057
119	0xbe083e72	-0.13305071
120	0x3e1dec18	0.15422094
121	0x3ce529ba	0.027973998
122	0xbdc46af6	-0.09590714
123	0xbe192ea6	-0.14959201
124	0x3dc5c154	0.09656015
125	0xbd14ed75	-0.03635927
126	0x3e0bd3ca	0.1365501
127	0x3ca209bf	0.019780038
128	0x3e2a588b	0.16635339
129	0x3d18802f	0.03723162
130	0x3e0d2abf	0.13785838
131	0x3d1e170c	0.038596198
132	0xbcef0c56	-0.029180687
133	0xbe09763f	-0.13424014
134	0x3c5504e2	0.013001652
135	0xbcdf5bd5	-0.027265469
136	0x3daaa303	0.08331873
137	0x3b47e933	0.0030503988
138	0xbe863e2c	-0.26219308
139	0x3de5c914	0.11219993
140	0xbda0ab26	-0.07845144
141	0xbd96f701	-0.07371331
142	0xbdd14089	-0.10217387
143	0xba9f9ad5	-0.0012176881
144	0xbc51c3ce	-0.012803031
145	0xbbeb2ddb	-0.0071770973
146	0x3d7029ea	0.058633722
147	0xbb47686d	-0.0030427233
148	0xbe065b52	-0.13120773
149	0x3d18942c	0.037250683
150	0xbe17f858	-0.1484083
151	0x3d291367	0.04127827
152	0x3d532e8b	0.05155806
153	0xbbb132da	-0.0054076733
154	0xbdcd9e84	-0.1004
155	0xbd99763e	-0.07493256
156	0xbe0bc2bd	-0.13648506
157	0x3d19460e	0.037420325
158	0xbdae7fe3	-0.08520486
159	0xbdd4f54f	-0.103983514
160	0xbdc084aa	-0.09400304
161	0xbdd7f9a3	-0.10545661
162	0xbd382b6f	-0.044963297
163	0xbd9eb183	-0.077487014
164	0x3d918246	0.07104926
165	0x3c03d0fd	0.008045432
166	0x3c3b467e	0.011430381
167	0x3e2cd90c	0.16879672
168	0xbca75278	-0.020425066
169	0xbddc1bfb	-0.10747524
170	0xbda00a88	-0.07814509
171	0xbd105803	-0.035240185
172	0x3b3bd640	0.0028661638
173	0xbdbd81ce	-0.09253274
174	0xbd0a2ff1	-0.033737127
175	0xbcca2c3d	-0.024679298
176	0xbdb5ac06	-0.088707015
177	0xbc9e3055	-0.019310156
178	0xbe2b7e31	-0.16747357
179	0xbd2f7a66	-0.042841338
180	0xba26445f	-0.00063425855
181	0x3e4ccde3	0.20000415
182	0x3d5da3dd	0.05411135
183	0xbe31e3f5	-0.17372115
184	0xbca9cb62	-0.020726863
185	0xbaa2cd07	-0.0012420722
186	0x3d0daefd	0.03459071
187	0x3d18ac43	0.037273657
188	0x3d4f1cf1	0.05056471
189	0xbe867c30	-0.26266623
190	0xbb927f33	-0.0044707297
191	0xbd81a7dc	-0.06330845
192	0x3e002635	0.12514575
193	0x3c4276d6	0.011869153
194	0x3ddd8a97	0.108174495
195	0x3cf875c3	0.03032959
196	0x3d3b4264	0.045717612
197	0x3c573530	0.0131352395
198	0x3d69dc7b	0.057095032
199	0x3e4fdb8a	0.20298591
200	0x3dab3a32	0.08360709
201	0xbd33e51f	-0.04391968
202	0xbe2a852c	-0.16652364
203	0x3d1dc1ea	0.03851501
204	0xbd058acc	-0.03260307
205	0xbd8e774b	-0.06956347
206	0x3c87528b	0.016518852
207	0xbd5a1aff	-0.0532484
208	0xbda08d12	-0.07839407
209	0x3e255ce1	0.16148712
210	0xbe0079b4	-0.12546426
211	0xbdc46c33	-0.0959095
212	0xbdda938c	-0.106726736
213	0x3da1f27f	0.079075806
214	0xbe04e065	-0.12976225
215	0xbc04ee51	-0.00811346
216	0xbda0e6a0	-0.07856488
217	0x3baf6083	0.0053520813
218	0x3d91612b	0.070986114
219	0x3d8fda49	0.070240565
220	0xbcdcdfa1	-0.026962103
221	0x3da96a0c	0.0827218
222	0xbd8638d4	-0.06553808
223	0x3ce234ce	0.02761307
224	0x3c5fdc52	0.013663368
225	0xb8d23867	-0.00010024086
226	0xbb858113	-0.0040742247
227	0x3e01a04c	0.12658805
228	0xbc9ddbab	-0.019269785
229	0xbd9103d6	-0.0708081
230	0x3dc42ae4	0.09578493
231	0xbc740bde	-0.0148954075
232	0xbdba4105	-0.09094433
233	0xba9a6d00	-0.0011781752
234	0x3cba2d6b	0.022726735
235	0x3d960c5e	0.073265776
236	0xbdaacec2	-0.08340217
237	0x3d0ab190	0.033860743
238	0xbbc80eb1	-0.006105267
239	0x3deffdcd	0.117183305
240	0x3cc9281d	0.02455526
241	0xbc0026e1	-0.007821769
242	0x3d84b931	0.06480635
243	0x3e35167f	0.17684363
244	0xbcedeca6	-0.029043507
245	0xbc5fd6dc	-0.013662066
246	0xbe23996d	-0.15976496
247	0x3d837bc7	0.06420093
248	0x3d2c642a	0.04208771
249	0x3ddd74da	0.10813303
250	0x3caec6b2	0.02133498
251	0xbdf1190e	-0.11772357
252	0xbd8b59e2	-0.06804253
253	0xbc415893	-0.011800903
254	0x3d51852c	0.051152393
255	0x3e29e47b	0.16591065

network_body._body_endoder.seq_layers.2.bias f4 [128]
0	0xbcba8e8d	-0.022773052
1	0x3c94b41c	0.01815229
2	0x3cb7cecf	0.022437481
3	0x3bbfe6b1	0.005856358
4	0x3b99c4f3	0.0046926676
5	0xba9f43c7	-0.0012150937
6	0xbabf0ae5	-0.001457539
7	0xbc540203	-0.012939933
8	0x3c402789	0.011728176
9	0x3c7b31ab	0.015331666
10	0xbbdd861a	-0.006760371
11	0x3d3d99f4	0.0462894
12	0x398aa851	0.00026446817
13	0x3c44fe94	0.012023587
14	0x3d11881f	0.035530206
15	0x3d068f9e	0.032851808
16	0x3d1d3bb8	0.03838703
17	0x3ac324bb	0.0014888266
18	0xbc8a811c	-0.016907267
19	0x3cef344c	0.029199742
20	0xbcf3e02d	-0.029769981
21	0xbcae84bf	-0.021303533
22	0xb849c1ae	-4.8102513e-05
23	0x3cc09de9	0.023512797
24	0xba0a78af	-0.00052822655
25	0xbc64415d	-0.013931599
26	0xbc8234b7	-0.015894277
27	0x3cb701a7	0.022339655
28	0x3d07a155	0.033112843
29	0xbad179b1	-0.0015981701
30	0x3c897b33	0.016782379
31	0xbc4da0a1	-0.012550504
32	0xbb0ace80	-0.0021180212
33	0xbd17f457	-0.037098255
34	0x3cb131a3	0.021630114
35	0xbca505d4	-0.02014438
36	0x3d2f5e61	0.042814616
37	0x3c868c97	0.01642446
38	0x3cca1b27	0.02467115
39	0x3cd666fd	0.026172156
40	0x3c75fc48	0.015013762
41	0x3d3d0cf8	0.046154946
42	0xbb34b157	-0.0027571523
43	0xbcbf682b	-0.0233651
44	0xbca8d6b8	-0.020610198
45	0xbc7246fa	-0.01478743
46	0xbcdd861f	-0.027041493
47	0x3b90cf60	0.0044192523
48	0xbcd68032	-0.026184175
49	0xbb4d52c5	-0.0031329852
50	0x3cb0a5e6	0.021563482
51	0x3d3ee1ab	0.046601932
52	0x3bb6dd0f	0.0055805515
53	0xbcab8169	-0.020935731
54	0xb87073ba	-5.7328238e-05
55	0x3c2b1752	0.010442572
56	0xb9748451	-0.00023318945
57	0xbc2e6196	-0.0106433835
58	0xbbd9ee1b	-0.006650699
59	0xbc8a78a2	-0.016903225
60	0x3c961350	0.018319756
61	0x3b7d983c	0.0038695475
62	0xbaa0b736	-0.0012261632
63	0x3b8d3a4c	0.004309928
64	0xbc3a6d5a	-0.0113786105
65	0x3ce58833	0.028019046
66	0x3babc0d8	0.0052414946
67	0x3d06cb1f	0.032908555
68	0xbca735f3	-0.020411467
69	0x3d27c72a	0.040961422
70	0x3c199772	0.009374486
71	0xbbe12812	-0.006871232
72	0xbcc3f79c	-0.02392178
73	0xbbf21d86	-0.0073887734
74	0xbc0b356a	-0.008496622
75	0x3b97d2ea	0.004633297
76	0x3cba1d5f	0.022719083
77	0x3cb61418	0.022226378
78	0xbc95ff61	-0.01831025
79	0xbac08692	-0.0014688543
80	0xbbc79cb6	-0.0060916794
81	0x3d0dce08	0.034620315
82	0x3c6b56dc	0.014363971
83	0xbbe23884	-0.00690371
84	0x3bbdafd1	0.005788781
85	0xbc3caacc	-0.0115153305
86	0x3b0c7d5d	0.0021437027
87	0x3c17113c	0.009220418
88	0x3bef2075	0.0072975704
89	0x3b1b0837	0.002365602
90	0x3bf9c1e3	0.00762199
91	0xbcad0347	-0.021119727
92	0xbb8eaa4b	-0.0043537966
93	0x3be82d9b	0.0070855147
94	0xbcbd0c52	-0.023077164
95	0x3cb65566	0.022257518
96	0x3c4afd33	0.012389469
97	0x3c576e65	0.013148879
98	0x3c9cb9d2	0.019131575
99	0xbbd376a0	-0.00645335
100	0x3cfa9375	0.030587891
101	0x3cbc2bf6	0.022970181
102	0x397c4601	0.00024058671
103	0xb9a02149	-0.00030542377
104	0x3bcd0a25	0.006257313
105	0x3b8398c7	0.004016015
106	0x3d018923	0.031624924
107	0xbcb6dae2	-0.022321168
108	0x3c9ac21c	0.018891387
109	0x3cac6c6b	0.021047791
110	0xbc1ddfb3	-0.009635854
111	0x3c490acf	0.012270643
112	0xbc9db5bd	-0.019251699
113	0xbc339404	-0.010960583
114	0x3c4d4c4f	0.0125304
115	0x3c7cd405	0.015431409
116	0x3ccc97a9	0.024974661
117	0x3ca9d2aa	0.020730335
118	0xbb7aa2e5	-0.0038244065
119	0x3bb15927	0.005412239
120	0xbcbd92b1	-0.023141237
121	0x3cbad8f7	0.022808535
122	0xbca56356	-0.020188969
123	0xbba09f1c	-0.00490178
124	0x3c5d4c64	0.0135069825
125	0xbc6b5c63	-0.014365288
126	0xbc8d86de	-0.017276224
127	0xbc18da27	-0.009329355

action_model._continuous_distribution.log_sigma f4 [1, 2]
0	0xbddb15bf	-0.10697507
1	0xbd8e3a06	-0.06944661

action_model._continuous_distribution.mu.weight f4 [2, 128]
0	0x3cc91504	0.024546154
1	0x3c0a1bec	0.008429509
2	0xba699e59	-0.000891184
3	0xbd1be7b6	-0.038062774
4	0x3c6ee07a	0.014579887
5	0x3caa9b40	0.020825982
6	0xbd1d5209	-0.038408313
7	0xbd652380	-0.05594206
8	0x3c36ea4a	0.011164257
9	0xbc51c8ae	-0.012804193
10	0xbbbbdf70	-0.005733423
11	0x3d8a6021	0.067566164
12	0x3c6e7bee	0.014555914
13	0x3c68c65c	0.014207449
14	0xbc774f8e	-0.015094651
15	0x3d8fcd0e	0.07021533
16	0xbc57280a	-0.013132105
17	0x3cab2edf	0.020896373
18	0xbd168299	-0.03674564
19	0x3ce1ae15	0.02754883
20	0x3bb25881	0.0054426794
21	0xbc6447d7	-0.013933144
22	0x3d87f432	0.066383734
23	0x3d8a210e	0.06744586
24	0x3baa38b4	0.005194748
25	0xbc19d787	-0.009389765
26	0x3c8248ab	0.015903791
27	0xbd420891	-0.04737145
28	0x3cfeeb46	0.031118046
29	0x3ca3c34a	0.019990582
30	0xbcb49e64	-0.022048183
31	0x3c9b522b	0.01896008
32	0x3d0e8cab	0.03480212
33	0xbc3fcf3e	-0.011707125
34	0x3d428d16	0.04749783
35	0xbc78d081	-0.01518643
36	0x3ceae7c5	0.02867497
37	0x3c8ea291	0.017411502
38	0xbc6b72bf	-0.014370619
39	0x3ca8c086	0.020599615
40	0xbd99ee5c	-0.075161666
41	0x3d28b2be	0.041186087
42	0xbcab5c67	-0.020918084
43	0xbbaadbad	-0.0052141757
44	0xb9f2ac55	-0.00046286234
45	0x3d671e94	0.056425646
46	0x39b14dcb	0.0003381803
47	0x3b9aa907	0.0047198567
48	0xbcc4c36d	-0.024018968
49	0x3d1c8df1	0.038221303
50	0xbb286a26	-0.0025698035
51	0x3d0cd7ed	0.03438561
52	0x3d6560fa	0.056000687
53	0xbc074d81	-0.008258224
54	0xbceedcac	-0.029157959
55	0xbccaf2b2	-0.02477393
56	0x3d211d78	0.039334744
57	0x3c8aa06f	0.016922204
58	0x3c3d7bcf	0.011565163
59	0x3c2e08e4	0.010622237
60	0x3d370632	0.044683643
61	0x3d244d3e	0.040112726
62	0xbc0940cb	-0.008377264
63	0xbd2717a1	-0.04079402
64	0xbbdd190e	-0.0067473715
65	0x3dc3c3f8	0.095588624
66	0x3ceaa340	0.028642297
67	0xbd7592f2	-0.05995459
68	0x3cb313ec	0.021860085
69	0xbcb86f17	-0.02251391
70	0xbd3b9505	-0.045796413
71	0xbd51caaa	-0.051218666
72	0xbd4df603	-0.050283443
73	0x38235b76	3.8947408e-05
74	0x3ac54279	0.0015049718
75	0xbb78c3fd	-0.0037958615
76	0x3da71790	0.08158791
77	0x3c52dd62	0.012870165
78	0xbc5bdd1d	-0.013419417
79	0xbd03bd43	-0.032162916
80	0xbd152fc4	-0.036422506
81	0xbc40d25c	-0.011768904
82	0x3cb0d180	0.021584272
83	0xbcf820d7	-0.030289097
84	0xbd148324	-0.036257878
85	0xbd775e1e	-0.06039249
86	0x3c8cba2e	0.017178621
87	0x3c93d14c	0.018044136
88	0xbc397e5f	-0.011321633
89	0x3b823bc0	0.003974408
90	0xbcc7f3ab	-0.024408182
91	0xbc3e5e42	-0.0116191525
92	0xbd069cbd	-0.03286432
93	0x3cea02ef	0.028565852
94	0xbc4e1675	-0.012578596
95	0x3ba11e05	0.0049169087
96	0xbc4304b0	-0.011902973
97	0xbd079a8b	-0.033106368
98	0x3d0e915b	0.03480659
99	0x3c121312	0.0089156795
100	0xbd8f1dc2	-0.06988098
101	0x3c806f42	0.015678052
102	0xbc8bdfac	-0.017074428
103	0x3d0ab05f	0.033859607
104	0x3beb787e	0.0071859946
105	0x3c867748	0.0164143
106	0x3cb2f992	0.02184752
107	0xbb2ac58b	-0.0026057686
108	0xbd4dbe3d	-0.050230253
109	0xbd08e4a7	-0.033421185
110	0xbcca759b	-0.024714282
111	0xbc8301ae	-0.015992012
112	0x3d476e32	0.048689075
113	0x3c930a1a	0.017949153
114	0x3c8085f1	0.015688868
115	0xbcbb0510	-0.022829562
116	0x3b9a0e3f	0.0047014053
117	0xbd0917e8	-0.033470064
118	0x3cb4384e	0.021999504
119	0xbd183b2f	-0.037165817
120	0xbc8ee93d	-0.017445201
121	0x3cb5a37a	0.022172678
122	0xbc831162	-0.0159995
123	0xbaae83e5	-0.0013314454
124	0x3ca50256	0.020142715
125	0x3c6e6b4e	0.014551951
126	0xbd0eba97	-0.034845915
127	0x3c9e354f	0.019312529
128	0xbd83717d	-0.064181305
129	0xbd303c5e	-0.04302632
130	0x3ca3de7b	0.020003548
131	0x3c02e13d	0.007988271
132	0xbd96ee62	-0.07369687
133	0xbd292f6e	-0.041304998
134	0xbd2af5de	-0.041738383
135	0xbcf958b6	-0.030437808
136	0x3d13b5d2	0.03606207
137	0x3c346738	0.011010937
138	0xbd85dfe2	-0.06536843
139	0xbbfee05f	-0.007778212
140	0x3a8d5c2e	0.0010784918
141	0x3c4fd7c3	0.012685719
142	0x3d87b490	0.066262364
143	0x3d042437	0.0322611
144	0x3d15b34d	0.036547948
145	0xbc179c00	-0.009253502
146	0xbd1f2e39	-0.03886244
147	0x3d3373f0	0.04381174
148	0x39bf9494	0.00036541058
149	0xbd082935	-0.033242423
150	0x3c3f6cb2	0.01168363
151	0x3caf783f	0.021419642
152	0xbc33d109	-0.010975131
153	0xbce0fb8d	-0.027463699
154	0xbc1748d0	-0.009233668
155	0xbd826156	-0.063662216
156	0x3d6439ec	0.0557193
157	0xbd128640	-0.035772562
158	0x3c958171	0.018250199
159	0xbccf9600	-0.02534008
160	0xbc7d5173	-0.015461314
161	0x3b00b6b4	0.001964015
162	0xbcaa850c	-0.020815395
163	0xbcae5fd2	-0.021285925
164	0x3d8720a2	0.06598021
165	0xbd6973b8	-0.056995124
166	0x3d0898cf	0.033348855
167	0x3d3ecdb6	0.0465829
168	0x3c8d706a	0.017265517
169	0x3d2ac010	0.04168707
170	0xbcef3b4d	-0.029203082
171	0xbc9587a0	-0.018253148
172	0xbb4e0d06	-0.0031440868
173	0xbd9cd3e4	-0.076576024
174	0xbc325fc9	-0.010887095
175	0xbd720697	-0.059088316
176	0x3c0e9e7a	0.008704776
177	0xbd05c717	-0.03266057
178	0x3c71a325	0.014748369
179	0x3d567954	0.0523618
180	0xbbda4514	-0.006661067
181	0xbca208b8	-0.019779548
182	0x3aea5429	0.0017877865
183	0x3c82ac31	0.015951248
184	0xbcb407f1	-0.021976443
185	0xbb64640f	-0.0034849679
186	0xbc4dd663	-0.012563321
187	0xbc6c9cd0	-0.014441684
188	0xbda14a8d	-0.078755476
189	0xbdb707a2	-0.08937003
190	0x3c1b2575	0.00946938
191	0x3afaa325	0.0019122107
192	0xbb14ebbe	-0.002272352
193	0x3c968d3d	0.018377895
194	0x3afc0616	0.0019227888
195	0x3d37077f	0.044684883
196	0x3d15f82e	0.036613636
197	0x3d9e40ea	0.07727225
198	0xbc4b362d	-0.012403053
199	0xbd3eacf5	-0.046551663
200	0x3c3061b6	0.010765484
201	0xbcbb59a4	-0.022869892
202	0xbcd8653d	-0.026415462
203	0xbd17c012	-0.037048407
204	0xbc80cb18	-0.015721843
205	0x3d4cec90	0.05003029
206	0xbcb09cd4	-0.021559156
207	0xbd75fb1f	-0.06005394
208	0xbd17958c	-0.037007853
209	0xbdb5ea8d	-0.08882628
210	0x3cd33032	0.025779817
211	0xbd2cb820	-0.042167783
212	0xbd91f2a4	-0.07126358
213	0x3c0e58b7	0.008688143
214	0x3b307e2c	0.0026930673
215	0xbd2a0d81	-0.041516785
216	0xbd74e881	-0.059792046
217	0xbd9b9813	-0.07597365
218	0xbcbeef65	-0.023307512
219	0xbd25316c	-0.040330335
220	0xbd820406	-0.06348424
221	0xbcbdc725	-0.023166249
222	0xbc9b5b7d	-0.018964523
223	0x3ce35828	0.027751997
224	0xbd58ca7a	-0.05292747
225	0x3c8e9ea2	0.017409626
226	0xbd3dcb46	-0.046336435
227	0xbd3a4e8d	-0.045485068
228	0x3d7bf5cf	0.06151372
229	0x3d2ca61c	0.0421506
230	0xbd46aaa6	-0.048502587
231	0xbcdbd057	-0.026832743
232	0x3bfe7e0e	0.0077664917
233	0xbcab5cfc	-0.020918362
234	0x3d3bbe71	0.045835916
235	0xbc985c05	-0.018598566
236	0x3a873d9a	0.0010318041
237	0xbda88e6b	-0.08230289
238	0xbd168836	-0.036750995
239	0xbd81e83e	-0.06343125
240	0x3c100ffa	0.008792872
241	0xbd2639d0	-0.040582478
242	0xbd6098c7	-0.0548332
243	0xbda943dd	-0.08264897
244	0x3d14d2a2	0.036333688
245	0x3d0a8061	0.033813838
246	0xbd4b9fb5	-0.049712855
247	0x3c09c0c5	0.008407776
248	0xbc8672ed	-0.016412223
249	0x3cabd894	0.020977296
250	0xbce1294d	-0.027485514
251	0xbd881efe	-0.06646536
252	0x3ca724d2	0.0204033
253	0xbaaca72d	-0.0013172381
254	0xbd5d1901	-0.053978924
255	0xbd3e8d17	-0.046521273

action_model._continuous_distribution.mu.bias f4 [2]
0	0xbb03b009	-0.0020093939
1	0x3cb8524b	0.022500178
