Assets/Soccer5Agent.onnx (onnx, 81432 bytes, 9 tensors)

discrete_act_size_vector f4 [1, 2]
0	0x40400000	3.0
1	0x40400000	3.0

network_body._body_endoder.seq_layers.0.weight f4 [128, 15]
0	0xbe3fe47a	-0.187395
1	0xbe96ea92	-0.29475838
2	0x3d899bf3	0.06719198
3	0xbdc01440	-0.093788624
4	0xbe9a6f61	-0.301631
5	0xbdf7ea78	-0.12105268
6	0x3d1fb6ca	0.03899268
7	0xbe62522d	-0.2210166
8	0xbebfcf04	-0.37462628
9	0x3e23e159	0.16003932
10	0x3de04715	0.10951058
11	0xbd930e89	-0.07180507
12	0x3e12d3c9	0.14338602
13	0x3e692608	0.22768414
14	0x3d8ba5ac	0.06818709
15	0xbd16350a	-0.036671676
16	0xbcc2d60c	-0.023783706
17	0x3eb1a3c6	0.34695262
18	0x3acd885b	0.0015680896
19	0x3e78cec1	0.2429762
20	0x3ef78001	0.48339847
21	0xbe32eee6	-0.17473945
22	0xbc373c56	-0.011183819
23	0xbca116ac	-0.019664131
24	0x3eada7ce	0.33917087
25	0x3f0b8b48	0.545094
26	0x3d6c95ff	0.057760235
27	0xbccc62a3	-0.024949377
28	0xbf292b7a	-0.66081965
29	0xbe8ab4e0	-0.27091122
30	0x3e01d442	0.12678626
31	0x3de595c5	0.11210207
32	0xbf160ffb	-0.58618134
33	0x3f07f2b1	0.5310469
34	0xbdebe844	-0.115189105
35	0xbd59e8c2	-0.05320049
36	0x3df4ec0f	0.11959087
37	0x3e8d1c3e	0.2756061
38	0xbe2ae109	-0.16687407
39	0x3db9da68	0.09074861
40	0xbd455617	-0.048177805
41	0x3e11d7ab	0.14242427
42	0x3e2b540b	0.16731279
43	0x3ebfb06a	0.3743928
44	0x3b46293b	0.0030236978
45	0x3e8aeb45	0.2713262
46	0x3e38a064	0.18029934
47	0xbdc484a5	-0.095956124
48	0x3ea5fda6	0.3242008
49	0x3e647309	0.22309507
50	0xbe444749	-0.19167818
51	0x3e8ce221	0.27516273
52	0x3ce92539	0.028460132
53	0x3eceede7	0.4041588
54	0xbebb5097	-0.36584923
55	0x3e8fa27d	0.28053656
56	0x3ef91a30	0.48652792
57	0x3dda2dab	0.10653242
58	0x3de2e4a9	0.1107877
59	0x3e820717	0.25396034
60	0xbe10084d	-0.14065666
61	0xbe5cde72	-0.21569231
62	0xbea86bca	-0.32894737
63	0x3e8a6587	0.27030584
64	0xbec192cd	-0.37807313
65	0x39198ffc	0.00014644855
66	0xbd8676ac	-0.065656036
67	0x3eb1ded1	0.34740308
68	0x3e049b08	0.12949765
69	0x3e883b8c	0.2660793
70	0x3f0b9b34	0.54533696
71	0xbe11ac4f	-0.14225887
72	0xbe5c95f7	-0.21541582
73	0xbf02fba2	-0.5116521
74	0xbe07435c	-0.1320929
75	0x3deba576	0.115061685
76	0xbdc561b8	-0.09637779
77	0xbedcc0ed	-0.4311594
78	0xbe3dddef	-0.18541692
79	0xbe4ceb35	-0.200116
80	0x3da40eb1	0.08010615
81	0x3ef3223c	0.47487056
82	0xbe4334a9	-0.19063057
83	0x3d4d44ee	0.050114565
84	0xbeef6f2a	-0.467645
85	0xbe7179ea	-0.23581663
86	0xbd0a8ffa	-0.033828713
87	0x3ed1ed92	0.41001564
88	0x3f45c20a	0.77249205
89	0xbf41edf9	-0.7575374
90	0xbdcd4ee0	-0.1002481
91	0x3e2906df	0.16506527
92	0xbed652e1	-0.41860107
93	0xbd44b324	-0.048022404
94	0x3d85900d	0.06521616
95	0x3e08ef61	0.13372566
96	0x3b96733e	0.0045913747
97	0xbe5586b0	-0.2085216
98	0x3ca5b207	0.020226492
99	0xbeb2b868	-0.34906316
100	0x3da0f5fc	0.07859418
101	0xbe890145	-0.2675878
102	0x3deedd78	0.116633356
103	0xbee2625f	-0.44215676
104	0xbe8a8a31	-0.27058557
105	0x3d8bf14c	0.06833133
106	0x3d11df21	0.035613183
107	0x3c197c0e	0.009367956
108	0xbf2b1c5c	-0.6684015
109	0x3e824ed7	0.25450775
110	0x3e9b05ea	0.3027795
111	0x3ed75c02	0.42062384
112	0x3e071bd0	0.13194203
113	0xbe088830	-0.13333201
114	0xbc626dff	-0.01382017
115	0x3e86879f	0.26275346
116	0x3eafe51e	0.3435449
117	0xbe513fc2	-0.20434478
118	0xbd39a825	-0.04532637
119	0xbf2f398f	-0.684472
120	0xbdf51e97	-0.11968725
121	0x3d379361	0.044818286
122	0xbd5c2055	-0.05374177
123	0x3e2caa0b	0.16861741
124	0xbe84c5f6	-0.25932282
125	0xbeb24c29	-0.3482373
126	0xbefcc10d	-0.49366036
127	0x3da0cdb9	0.078517385
128	0x3f1dbb4e	0.6161393
129	0x3dc5548b	0.09635266
130	0xbe8dea85	-0.27717987
131	0xbe0bb786	-0.13644227
132	0x3e32ae40	0.17449284
133	0xbdac1a45	-0.08403448
134	0xbe077f51	-0.13232161
135	0x3e1d9127	0.15387402
136	0xbda4aa5d	-0.08040307
137	0x3e174c4e	0.14775202
138	0x3e5e6e1e	0.21721694
139	0x3f052b2d	0.52019006
140	0x3e07e62e	0.132714
141	0x3dc11d96	0.09429471
142	0x3c6694be	0.014073549
143	0x3c0bdfaf	0.008537217
144	0x3c8c1e90	0.017104417
145	0xbe77616d	-0.24158259
146	0xbe6ed7fe	-0.23324582
147	0xbecd537e	-0.40102762
148	0x3b9e6981	0.0048343544
149	0x3edaf44b	0.42764506
150	0xbea2421c	-0.31691062
151	0x3e9889d1	0.29792646
152	0xbe9872f6	-0.29775208
153	0xbc0dc7b9	-0.008653575
154	0x3f0e6545	0.55623275
155	0xbe86759c	-0.26261604
156	0xbe775e52	-0.24157074
157	0xbe2859c9	-0.164405
158	0x3dae5bba	0.08513589
159	0x3e267afd	0.16257854
160	0x3d9ad85d	0.07560799
161	0x3e5cc36c	0.21558923
162	0xbe7d89dc	-0.2475962
163	0x3d3f62be	0.046725027
164	0x3dba766d	0.09104619
165	0xbc516fd8	-0.012783013
166	0x3d6f0f96	0.058364473
167	0x3dcd16d6	0.10014121
168	0x3d3f4cd2	0.04670412
169	0x3ea8ee02	0.32994086
170	0xbe4308d2	-0.19046333
171	0x3e05d8e4	0.13071018
172	0x3c5ee856	0.013605198
173	0xbe890ff2	-0.26769978
174	0x3e3ee1fa	0.1864089
175	0xbebc2726	-0.36748618
176	0xbe6fb9e1	-0.23410751
177	0x3ee27eed	0.44237462
178	0x3d3167f0	0.043312013
179	0x3d81def2	0.063413516
180	0xbf0ab2e9	-0.54179245
181	0x3ede077c	0.43365085
182	0xbddef26b	-0.10886081
183	0x3eba75ea	0.36418086
184	0xbdcc7a6e	-0.09984289
185	0x3d7e9f9e	0.06216394
186	0x3d863930	0.065538764
187	0xbe8e0072	-0.27734715
188	0xbf316335	-0.69292
189	0xbecf0355	-0.4043223
190	0x3e5261d4	0.20545131
191	0xbf04f125	-0.5193046
192	0x3e593a36	0.21213612
193	0xbccdb7ad	-0.025111998
194	0xbedef5a8	-0.43546796
195	0x3eeb26a6	0.45927924
196	0xbe134172	-0.14380434
197	0x3ed09abf	0.40743062
198	0xbe6ef8ce	-0.23337099
199	0x3e8b878d	0.27251855
200	0xbeb1e038	-0.34741378
201	0xbe7cb72a	-0.24679247
202	0xbc6bacf0	-0.014384493
203	0x3ef3b8e6	0.47602004
204	0x3ed66da3	0.4188052
205	0xbde7797a	-0.11302467
206	0xbe017fe2	-0.1264644
207	0xbef1b7d2	-0.47210556
208	0xbecde3ff	-0.4021301
209	0xbdaf77d8	-0.0856778
210	0xbf094d6d	-0.5363377
211	0xbe812077	-0.2522008
212	0xbe9f3e27	-0.31102106
213	0xbd0863be	-0.033298247
214	0xbc984ae0	-0.01859039
215	0x3e9de546	0.30838984
216	0x3eb20ad0	0.34773874
217	0x3e7120a9	0.23547615
218	0xbe213c57	-0.15745674
219	0xbf10b36a	-0.56523764
220	0x3e222003	0.15832524
221	0x3e150e24	0.14556175
222	0xbe937a4e	-0.2880425
223	0xbc5cf924	-0.013487134
224	0xbe0c5900	-0.13705826
225	0xbcdc3e65	-0.02688522
226	0xbe836e42	-0.25670058
227	0xbdf501c0	-0.119632244
228	0xbdb3af5d	-0.08773682
229	0xbec898da	-0.39179116
230	0xbd96356e	-0.0733441
231	0x3b27882a	0.0025563338
232	0x3e8e5283	0.27797326
233	0x3e0686a3	0.13137297
234	0x3eb67269	0.35634163
235	0xbd2ee53d	-0.042699087
236	0xbf0fd7df	-0.5618877
237	0xbe147173	-0.14496402
238	0xbe28b9e5	-0.16477163
239	0xbd97c068	-0.074097455
240	0x3eeb2d64	0.45933068
241	0xbdbd3c55	-0.09240023
242	0xbe90f087	-0.28308508
243	0xbdf83954	-0.121203095
244	0x3eb1562a	0.3463605
245	0xbed1919d	-0.40931407
246	0x3e75026f	0.2392671
247	0xbe1b4657	-0.15163551
248	0x3e01ceae	0.12676498
249	0x3ea58872	0.32330662
250	0xbed65b69	-0.41866615
251	0xbd6ce3fb	-0.057834607
252	0xbd54bc8b	-0.05193762
253	0xbe977c23	-0.29586896
254	0xbd9036e0	-0.070417166
255	0xbe6e5fe8	-0.23278773

network_body._body_endoder.seq_layers.0.bias f4 [128]
0	0x3c7d3b02	0.015455963
1	0x3d6eac87	0.058270004
2	0xbc6a068d	-0.014283788
3	0x3d5ed8aa	0.054405846
4	0x3d3e1351	0.04640514
5	0x3d066f18	0.03282079
6	0x3be097d2	0.006854036
7	0xbc1a46af	-0.009416266
8	0x3da45207	0.08023458
9	0xbd47a6bf	-0.048743006
10	0x3d868304	0.06567958
11	0xbbb3b77e	-0.0054845205
12	0xbc0b40db	-0.0084993495
13	0xbca07eb7	-0.019591672
14	0x3d20ec6c	0.03928797
15	0xbc3941b3	-0.011307168
16	0xbc0bafbc	-0.008525785
17	0xbcdadee2	-0.026717607
18	0xbcbdf871	-0.023189755
19	0xbb92b867	-0.004477549
20	0x3b41f731	0.00295968
21	0x3d599522	0.05312074
22	0x3c9eb39f	0.01937276
23	0xbd04c3ab	-0.032413166
24	0x3ca01271	0.019540044
25	0x3abbb141	0.0014319794
26	0x3cdb308a	0.026756544
27	0x3d0050c9	0.031327043
28	0x3c9b4f79	0.018958794
29	0x3b4176d1	0.0029520283
30	0x3d4c9135	0.049943168
31	0x3cae10ae	0.021248188
32	0xbd1dd2da	-0.03853116
33	0xbc0aba7b	-0.008467312
34	0xbc3cf261	-0.011532397
35	0x3db75cf0	0.08953273
36	0x3da3b4aa	0.07993443
37	0x3b88c282	0.0041735778
38	0x3cbee4ef	0.023302523
39	0xbc777f21	-0.0151059935
40	0x3d1249bc	0.03571485
41	0xbcb1a010	-0.021682769
42	0x3cc15165	0.023598382
43	0x3d1b5ce9	0.037930403
44	0x3c02cfcf	0.007984116
45	0x3cd462e3	0.02592606
46	0x3a047d3a	0.00050540606
47	0x3d153925	0.03643145
48	0x3bca140c	0.0061669406
49	0x3a173c65	0.00057691924
50	0xbc116e03	-0.0088763265
51	0x3cbab89c	0.022793107
52	0xbbb0b609	-0.005392794
53	0x3dd451fa	0.10367198
54	0x3d6244d0	0.055241406
55	0x3bffc0e5	0.0078049772
56	0x3dd87479	0.105690904
57	0x3c420b20	0.011843473
58	0x3d23f035	0.040024
59	0xbc15f68c	-0.00915302
60	0x390001db	0.00012207722
61	0x3d2e7cd0	0.0425995
62	0xbcb77106	-0.022392761
63	0x3b063ff9	0.0020484908
64	0xbca850a0	-0.020546257
65	0x3d063fc6	0.032775663
66	0x3c399dd0	0.011329129
67	0xbc727216	-0.014797708
68	0x3ccd0dd8	0.025031015
69	0x3dcad623	0.099041246
70	0x3c8dcd42	0.017309789
71	0x3cc6537a	0.024209727
72	0x3c97fcf0	0.018553227
73	0x3d5245a1	0.051335935
74	0x3d1d1564	0.038350478
75	0x3cb3870c	0.021914981
76	0x3c571766	0.013128137
77	0x3cb80878	0.022464976
78	0x3bdfaf42	0.0068263123
79	0x3d2cdf8e	0.042205386
80	0xbcd5cece	-0.026099589
81	0x3c47324b	0.012157987
82	0x3c6d15d6	0.014470538
83	0x3cd6a7ac	0.026202999
84	0xbbef8928	-0.0073100515
85	0x3c994667	0.018710328
86	0x3b3f10d7	0.0029154324
87	0x3b3f3231	0.0029174204
88	0x3d0040fd	0.031311978
89	0x3cc5a40c	0.024126075
90	0x3ccc2a66	0.02492256
91	0x3c8dd71a	0.017314482
92	0xbcb179c8	-0.021664515
93	0x3d1c7204	0.03819467
94	0xbd0d846a	-0.034550108
95	0xbba13c81	-0.0049205427
96	0x39ac6d39	0.00032887774
97	0x3d0bdb1c	0.034144506
98	0xbcec5569	-0.02884932
99	0x3c65b9bb	0.014021332
100	0x3cbb4c06	0.0228634
101	0x3b5829f2	0.0032983986
102	0x3d91ed93	0.07125392
103	0x3c143a64	0.009047125
104	0x3c7722d7	0.01508399
105	0xbbb28a57	-0.0054486203
106	0xbc1e4b0f	-0.00966145
107	0x3d89fe20	0.067379236
108	0x3be1cd7d	0.006890951
109	0x3c21e16b	0.009880404
110	0x3b927f3c	0.004470734
111	0x3c4a3e70	0.012343988
112	0xbc6dab88	-0.014506228
113	0xbceedab6	-0.029157024
114	0x3c99cfb1	0.018775793
115	0x3c3ed54e	0.0116475355
116	0xbcccd1e5	-0.02500243
117	0x3d186683	0.037207138
118	0xbce95e20	-0.028487265
119	0x3b8fb565	0.0043856376
120	0x3c3ef4f0	0.011655077
121	0xbcf2263b	-0.029559245
122	0x3b4308c9	0.0029759875
123	0x3cefa2f9	0.029252516
124	0x3caa276f	0.020770757
125	0xbd68d294	-0.056841448
126	0x3d3399d0	0.04384786
127	0xba7e71ee	-0.0009706308

network_body._body_endoder.seq_layers.2.weight f4 [128, 128]
0	0xbcb10689	-0.021609562
1	0xbdd665d0	-0.10468638
2	0xbc638642	-0.01388699
3	0xbd3f0891	-0.04663903
4	0xbd2c5083	-0.04206897
5	0xbd94d0fe	-0.072664246
6	0xbd0a0e05	-0.033704776
7	0x3d1ebcb7	0.03875419
8	0xbe2839a8	-0.16428244
9	0x3c4e40f1	0.012588725
10	0xbc1c2009	-0.009529122
11	0x3dca8ad7	0.09889763
12	0xbcee373a	-0.029079068
13	0x3d10de48	0.035368234
14	0xbd0758fc	-0.033043846
15	0xbd5d6094	-0.054047182
16	0xbca55238	-0.020180807
17	0x3df5b3be	0.11997174
18	0xbe3e314d	-0.18573494
19	0xbe846d6e	-0.25864738
20	0x3df8abb8	0.12142128
21	0x3e08ad13	0.13347273
22	0x3cdbe982	0.026844744
23	0x3d1589ba	0.0365083
24	0xbd65d32f	-0.056109603
25	0xbdfb86de	-0.12281583
26	0x3d85ae7b	0.0652742
27	0xbd12e996	-0.035867296
28	0xbd07ed6b	-0.033185404
29	0xbd1b2a99	-0.03788242
30	0x3e4e8d2a	0.20171037
31	0x3e16e424	0.14735466
32	0x3a9017b9	0.0010993398
33	0x3e07579a	0.13217011
34	0x3b4cad85	0.0031231355
35	0x3d5a8f3f	0.053359266
36	0x3e18c532	0.14918974
37	0x3d3356f9	0.043784115
38	0xbbb7f94f	-0.0056144367
39	0xbd6bec4e	-0.057598405
40	0xbe31ca36	-0.17362294
41	0x3d56bdef	0.05242723
42	0x3dc0336b	0.09384807
43	0xbdd92bd4	-0.10604063
44	0xbd4d9e3e	-0.05019974
45	0x3d6a1cc0	0.057156324
46	0xbce8e408	-0.028429046
47	0xbdc47079	-0.09591765
48	0x3d9e9e77	0.077450685
49	0x3e0efbc6	0.13963231
50	0x3d954d0b	0.072900854
51	0xbd2f6cc7	-0.042828348
52	0x3d393c73	0.045223664
53	0xbe9046d9	-0.28179052
54	0xbe1d833f	-0.15382098
55	0x3d1dda32	0.038538165
56	0xbe70dbba	-0.23521319
57	0x3d183932	0.03716392
58	0xbe017a2b	-0.1264426
59	0xbd94f82e	-0.07273899
60	0x3d292fcf	0.04130536
61	0xbcf96f36	-0.030448537
62	0xbe00c407	-0.12574778
63	0xbdad93e9	-0.08475477
64	0x3c2771ff	0.01022005
65	0xbd821a3d	-0.06352661
66	0xbd671bdf	-0.056423064
67	0xbdcd05ed	-0.10010896
68	0x3c350962	0.0110496
69	0xbcd637b8	-0.026149616
70	0x3d15db7c	0.03658627
71	0xbd0efbe8	-0.034908205
72	0x3dead837	0.11467021
73	0xbe0f0219	-0.13965644
74	0xbd815ecc	-0.06316909
75	0xbe08408f	-0.13305877
76	0x3cdf5d45	0.027266154
77	0xbded0aa7	-0.115742974
78	0x3e3b6bd5	0.18302853
79	0xbc85324e	-0.016259339
80	0x3d1a300b	0.037643474
81	0xbdbea730	-0.09309232
82	0x3d220241	0.03955293
83	0x3e28d9f1	0.16489388
84	0xbe0cebe3	-0.13761859
85	0x3c6d5b11	0.014487044
86	0x3c44f15d	0.012020436
87	0xbd78b57d	-0.060719956
88	0xbddfb40c	-0.10923013
89	0x3e0d34af	0.13789628
90	0x3d421cbf	0.047390696
91	0x3e3f1c1d	0.18663068
92	0x3d18b2fb	0.037280064
93	0x3d8a9e04	0.0676842
94	0xbd9808e0	-0.07423568
95	0x3d914613	0.07093444
96	0x3d796200	0.060884476
97	0xbdccaac8	-0.099935114
98	0x3e102c9f	0.14079522
99	0xbda762ab	-0.08173116
100	0xbd410f8f	-0.04713398
101	0xbdc06b3f	-0.093954556
102	0xbd984d9f	-0.0743668
103	0x3c4b55eb	0.012410621
104	0xbcc2155f	-0.023691831
105	0xbb9960d3	-0.004680732
106	0xbd9873a6	-0.07443933
107	0xbdb9c7cd	-0.09071312
108	0x3dc43bae	0.095816955
109	0xbd91af8a	-0.071135595
110	0x3d466d4f	0.04844409
111	0xbd5f2485	-0.054478187
112	0xbd225719	-0.039633844
113	0xbd55324e	-0.052049927
114	0x3e04dede	0.12975642
115	0x3d8fe7b8	0.07026619
116	0x3d08d057	0.033401813
117	0xbe25b7ec	-0.16183442
118	0xbd3f088b	-0.046639007
119	0x3d500620	0.05078709
120	0xbd634cc2	-0.055493124
121	0x3e0c92f2	0.1372793
122	0x3d6f64d7	0.058445778
123	0xbddf9e14	-0.10918823
124	0xbd327a95	-0.043573935
125	0x3dd3f2e6	0.103490636
126	0x3c17023b	0.00921684
127	0xbdeb10f5	-0.11477844
128	0x3b86733e	0.0041030934
129	0x3e04e327	0.12977277
130	0xbc3f3956	-0.011671385
131	0x3c1379dd	0.009001222
132	0x3dee3b85	0.11632446
133	0x3c58440d	0.013199818
134	0xbb810aee	-0.0039380705
135	0xbd5c020b	-0.053712886
136	0xbcd82b7d	-0.026387924
137	0xbdc2159d	-0.09476779
138	0x3da45113	0.08023276
139	0xbcd2c146	-0.025726926
140	0xbc28d243	-0.010304037
141	0xbe1718a0	-0.14755487
142	0x3e097363	0.13422923
143	0x3d007ba8	0.031367928
144	0x3df37d5c	0.11889145
145	0xbd59a27f	-0.053133484
146	0xbcb8a62f	-0.02254018
147	0x3db49f12	0.08819403
148	0xbbddf3ef	-0.006773464
149	0x3d499ad1	0.04921991
150	0xbd0cc704	-0.034369484
151	0x3c40241e	0.011727361
152	0x3e008053	0.12548952
153	0xbd0db67c	-0.03459786
154	0x3d67c90c	0.056588218
155	0x3e52568c	0.20540828
156	0x3d090723	0.03345407
157	0x3d7f6846	0.062355302
158	0xbc56a890	-0.013101712
159	0xbd0e77d7	-0.034782257
160	0xbda143c1	-0.07874251
161	0x3e0f075b	0.1396765
162	0x3de54d21	0.11196352
163	0xbcc272d1	-0.02373639
164	0xbc060572	-0.008180009
165	0x3e273533	0.16328888
166	0x3dd99fd6	0.106261894
167	0x3d934c64	0.07192305
168	0x3e2b1040	0.16705418
169	0xbd95142c	-0.07279238
170	0x3b66a767	0.0035194994
171	0x3e351a2c	0.17685765
172	0x3d7d976d	0.06191199
173	0x3d531f63	0.051543605
174	0xbd92393f	-0.07139825
175	0xbc5bc367	-0.013413287
176	0xbded97e5	-0.11601237
177	0x3e3ce708	0.18447506
178	0xbdabb2ae	-0.0838369
179	0x3d70d596	0.05879744
180	0x3df1893b	0.11793753
181	0xbca0175d	-0.01954239
182	0x3dab9197	0.083773784
183	0xbc38b727	-0.011274136
184	0xbcb43b23	-0.022000855
185	0xbd8d482e	-0.06898533
186	0x3dec8772	0.11549272
187	0xbdcac5d7	-0.09901016
188	0xbd299c82	-0.041409023
189	0x3d1900fd	0.037354458
190	0xbc957e22	-0.018248621
191	0xbc3cd0b2	-0.011524366
192	0x3da62301	0.08112145
193	0x3d380567	0.044927027
194	0xbd2201b7	-0.039552417
195	0xbc8e5ed9	-0.017379211
196	0x3dc692f7	0.09696
197	0x3e34d1c8	0.1765815
198	0x3dcc410b	0.099733435
199	0x3d16a116	0.036774717
200	0xbc25ed17	-0.010127327
201	0xbd7a70ee	-0.061142854
202	0x3e1b9db8	0.15196884
203	0xbadda56a	-0.0016910259
204	0x3dc6f7f5	0.09715263
205	0xbd6a6992	-0.057229586
206	0x3d25ced8	0.040480465
207	0xbb4b8395	-0.003105377
208	0xbd3b702d	-0.045761276
209	0xbd8efc7e	-0.06981753
210	0x3d34a1bd	0.04409956
211	0x3e04b274	0.129587
212	0xbcde400a	-0.027130146
213	0x3d60ee7a	0.05491493
214	0x3e013133	0.12616424
215	0x3daab875	0.08335964
216	0x3db0a14b	0.08624514
217	0x3d6bd8e8	0.057579905
218	0xbe2c0e1a	-0.16802254
219	0x3d00c5bb	0.03143857
220	0xbddff782	-0.1093588
221	0x3da2638d	0.07929144
222	0x3da1c189	0.07898242
223	0xbe294dcb	-0.16533582
224	0xbd5dd2b7	-0.05415603
225	0x3dd8f27b	0.105931245
226	0xbdd33c9f	-0.10314297
227	0xbe44441b	-0.19166605
228	0xbcf6fe01	-0.030150415
229	0xbc8fba33	-0.017544841
230	0x3e034644	0.12819773
231	0xbc82b001	-0.015953066
232	0xbdbcaf76	-0.09213154
233	0xbd877a03	-0.06615069
234	0xbe7d604f	-0.2474377
235	0x3d8a97e4	0.06767252
236	0x3d4c241d	0.049839128
237	0x3d76f873	0.060295533
238	0x3d252b46	0.040324472
239	0xbd5d93a1	-0.054095868
240	0xbd8a5365	-0.067541875
241	0x3d0d5f21	0.03451455
242	0xbe5211f1	-0.20514657
243	0x3d569265	0.052385706
244	0x39b7ad3a	0.00035033544
245	0xbe310c6b	-0.17289893
246	0xbdd15cee	-0.10222803
247	0xbdd2de9e	-0.10296367
248	0xbd078089	-0.033081565
249	0x3de4eac8	0.111775935
250	0x3e0e6009	0.13903822
251	0xbe362028	-0.17785704
252	0x3d5689f2	0.05237765
253	0x3dbb0837	0.09132426
254	0x3c43c291	0.011948244
255	0xbd857aa1	-0.0651753

network_body._body_endoder.seq_layers.2.bias f4 [128]
0	0x3d348029	0.044067536
1	0xbb42dde7	-0.0029734315
2	0xbbba5c1b	-0.0056872494
3	0xbc6485a1	-0.013947875
4	0xbba3e4c5	-0.0050016367
5	0xbc6dc3f8	-0.014512055
6	0xbccc8732	-0.02496681
7	0x3ca2491f	0.019810257
8	0x3cfa2f48	0.030540124
9	0xbbaee64e	-0.005337513
10	0x3b9d9991	0.0048095663
11	0xbb381bd1	-0.0028092752
12	0x3d0438f9	0.032280896
13	0xbb256c1b	-0.0025241438
14	0x3c274ee2	0.010211678
15	0x3b8da53e	0.004322677
16	0xbc28097f	-0.01025617
17	0xbc9d775f	-0.01922196
18	0x3cd81c84	0.026380785
19	0xbccb25b1	-0.024798246
20	0xbbfedddf	-0.007777914
21	0x3cace613	0.021105802
22	0x3c31ee30	0.010860011
23	0xba0be461	-0.00053364603
24	0x3c759adc	0.014990535
25	0xbc384f1e	-0.011249332
26	0xbb301da5	-0.0026873138
27	0x3ca9d9a7	0.020733668
28	0x3cda4f12	0.026649032
29	0x3d0cefb4	0.034408286
30	0x3c791950	0.015203789
31	0xba15f381	-0.0005720184
32	0x3d1e1ff9	0.03860471
33	0xbb307f7b	-0.0026931453
34	0x3b37ee24	0.0028065527
35	0x3bb04bda	0.005380136
36	0xba89e09a	-0.0010519207
37	0x3ca9aff4	0.020713784
38	0xbcacdb5d	-0.021100694
39	0x3baa9bd9	0.005206567
40	0x3b6912c9	0.0035564175
41	0x3d18c5f2	0.03729815
42	0xbc24902c	-0.010044139
43	0x3d1e0b2d	0.038584877
44	0x3d099639	0.03359053
45	0xbb52b187	-0.0032149272
46	0xbc089053	-0.008335191
47	0xbbbb6eda	-0.0057200016
48	0x3bda0e6b	0.006654551
49	0xbc9b6a7f	-0.01897168
50	0x3c0f24e6	0.008736825
51	0x3c104318	0.008805059
52	0x3c034a78	0.00801336
53	0x3b5824e4	0.0032980973
54	0x3c88a9ef	0.016682593
55	0x3c8f516a	0.017494876
56	0x3c8b3457	0.016992731
57	0x3c9ed135	0.019386867
58	0x3d296b22	0.041361935
59	0x3bce2c59	0.0062919077
60	0xbb0172bc	-0.0019752225
61	0x3cf326de	0.02968162
62	0xbb76314f	-0.0037566011
63	0xbc3e1f0b	-0.011604081
64	0x3ccbbbb2	0.024869774
65	0xbc1d0764	-0.009584282
66	0x3ae58a84	0.0017512594
67	0x3c346daf	0.011012479
68	0xbc4a470c	-0.01234604
69	0x3d481c18	0.048854917
70	0x3cf09593	0.029368198
71	0x3b5617fd	0.0032668107
72	0x3b93f89f	0.004515722
73	0x3d143111	0.036179606
74	0x3bb6c419	0.005577576
75	0xbc2eb51b	-0.010663296
76	0x3cc229cf	0.023701577
77	0xbc311dc4	-0.010810319
78	0x3c9dc886	0.019260656
79	0xbc91535c	-0.017739944
80	0x3c8288da	0.015934397
81	0x3c301b72	0.010748731
82	0x3cee8e82	0.029120687
83	0xb9836aab	-0.0002506574
84	0x3bb8f398	0.005644273
85	0x3c6a3c15	0.014296551
86	0xbb230cd4	-0.0024879472
87	0x3d047fb4	0.03234835
88	0x3cb2026e	0.021729674
89	0x3cbae29b	0.022813132
90	0x3c2b62f2	0.010460602
91	0x3cc68daa	0.024237473
92	0x3c9c462d	0.019076431
93	0x3c873738	0.016505823
94	0x3bc1900c	0.0059070643
95	0x3c108cf9	0.008822673
96	0x3cd56c4c	0.026052617
97	0x3d03a01b	0.03213511
98	0xbb08e0df	-0.0020885987
99	0x3ce0a145	0.02742065
100	0xbc6775dc	-0.014127221
101	0x3ca0e30b	0.019639513
102	0x3c6ac914	0.014330167
103	0xbbf7b47c	-0.007559357
104	0xbc24df15	-0.0100629525
105	0x3ba1cad7	0.0049375105
106	0x3c34366e	0.010999305
107	0xbb6c3fc7	-0.0036048756
108	0xbbe88c98	-0.007096838
109	0xbbabe612	-0.0052459324
110	0xbc97340c	-0.018457435
111	0x3ca99dcc	0.020705126
112	0x3bce2b5a	0.006291789
113	0xbcc09c82	-0.023512129
114	0x3ced2bee	0.028951611
115	0x3bfdd28c	0.0077460464
116	0x3c261619	0.010137104
117	0x3c279dcd	0.010230494
118	0xbc89fb75	-0.016843537
119	0x3c9be43c	0.019029729
120	0x3c973a8d	0.018460536
121	0x3be514fb	0.0069910265
122	0x3be2a98c	0.006917184
123	0xbbb191fc	-0.005419014
124	0x3b83a44e	0.0040173894
125	0x3b901149	0.004396592
126	0x3b910af5	0.004426355
127	0x3a7e2f30	0.00096963625

action_model._discrete_distribution.branches.0.weight f4 [3, 128]
0	0x3cdbfedf	0.02685493
1	0x3d2ac893	0.04169519
2	0x3c9b43a5	0.018953154
3	0x3c1d594e	0.009603811
4	0x3cda6a93	0.026662147
5	0x3cff0783	0.031131512
6	0x3aa55a91	0.0012615492
7	0x3cf79cd8	0.030226156
8	0xbc8f0fa8	-0.01746352
9	0xbbc88226	-0.0061190305
10	0xbbcd5eea	-0.006267418
11	0xbc907739	-0.017634975
12	0x3c9ecf77	0.019386036
13	0x3bfc8bac	0.00770708
14	0xbc263b4f	-0.010145976
15	0x3b9e100d	0.0048236907
16	0xbc24cf43	-0.010059181
17	0xbacf9182	-0.0015836211
18	0xba9a4e39	-0.001177258
19	0xbc946f82	-0.018119577
20	0x3b47c024	0.0030479515
21	0x3c47d0cf	0.01219578
22	0xbc1d7002	-0.009609224
23	0x3bf14bdb	0.007363779
24	0x3acf7366	0.0015827238
25	0x3cbbd963	0.022930807
26	0xbcb0f3b5	-0.021600584
27	0xbbdd198b	-0.0067474297
28	0x3c2dce0e	0.010608209
29	0x3d12fc2f	0.035885032
30	0xbcc1d7a6	-0.0236624
31	0xbaff56df	-0.0019480846
32	0xbc88fc05	-0.016721735
33	0xbc0da7c2	-0.008645954
34	0xbd0f4bcd	-0.0349844
35	0xba7e5ee8	-0.0009703473
36	0x3ce47a3f	0.027890323
37	0x3c892699	0.016742038
38	0xbbafc2be	-0.0053637912
39	0x3c0c9ce9	0.008582332
40	0xbaeb2d4a	-0.0017942574
41	0x3ca27342	0.01983035
42	0x3b9de4f6	0.004818554
43	0x3d08ac85	0.033367652
44	0x3ba1a9b0	0.0049335584
45	0x3cf0de40	0.029402852
46	0xba91a346	-0.0011111281
47	0x3babe4e7	0.005245793
48	0x3c894808	0.01675798
49	0xbc0e9e9b	-0.008704807
50	0x3ba35c19	0.004985344
51	0xbbbed12d	-0.0058232755
52	0xbbc1f0ab	-0.0059185824
53	0x3c97bb10	0.018521816
54	0x3ceaee80	0.028678179
55	0xbca070df	-0.019585071
56	0xbc9e1dd4	-0.019301333
57	0xbad7b9ee	-0.001645861
58	0xbbb21849	-0.005435024
59	0xbcf95f95	-0.030441085
60	0xbcc3e509	-0.023912923
61	0xbc440df4	-0.011966217
62	0xbc5c6ee3	-0.013454172
63	0x3beb1146	0.00717369
64	0xbc439da2	-0.011939438
65	0x3c32ffa7	0.01092521
66	0x3d55091d	0.052010644
67	0x3c5c5ac3	0.013449374
68	0x3b088508	0.0020831246
69	0xbc26dd0d	-0.010184539
70	0x3c00bbc6	0.007857269
71	0xbca09280	-0.019601107
72	0xbcc608b4	-0.024174072
73	0xbc2d8691	-0.010591165
74	0x3ca9ccaf	0.020727484
75	0x3ce68934	0.028141595
76	0x3a371bc9	0.00069850363
77	0x3c303674	0.01075517
78	0x3bdbc873	0.006707245
79	0xbb3454f0	-0.0027516447
80	0x3c1e9264	0.009678457
81	0xbc455bfb	-0.012045856
82	0xbadd6fbe	-0.0016894264
83	0xbd2c8749	-0.042121205
84	0xbc09e734	-0.0084169395
85	0xbc4ebbfa	-0.012618059
86	0xbcf992db	-0.030465534
87	0x3d070117	0.032960024
88	0x3c4935e3	0.012280914
89	0xbc26bfee	-0.010177596
90	0x3d02a34a	0.031894006
91	0x3cf977de	0.030452665
92	0x3bfdb96f	0.0077430527
93	0xbcc5923e	-0.024117585
94	0xbd0d1477	-0.034443345
95	0x3d027760	0.031852126
96	0x3c3a19e2	0.01135871
97	0xbc8af4ef	-0.016962497
98	0x3ca2b94a	0.019863743
99	0x3912cd6d	0.00014000172
100	0x3c3fc972	0.011705743
101	0xbbaa19dc	-0.005191071
102	0xbc944285	-0.018098125
103	0xbc500649	-0.012696811
104	0xbc5903fd	-0.01324558
105	0x3d395478	0.04524657
106	0xbc6f4cb4	-0.01460569
107	0xbb510a8b	-0.0031897153
108	0xbc26b9bc	-0.010176118
109	0x3bfaf4c9	0.007658575
110	0x3c9705cc	0.018435381
111	0x3b7b8b2e	0.0038382518
112	0x3b9a7173	0.004713231
113	0xbcb95588	-0.022623792
114	0xbc92c24b	-0.017914912
115	0x3cae06f6	0.021243554
116	0xbb32e4c6	-0.0027297004
117	0x3cd45d26	0.025923323
118	0xbcda4202	-0.026642803
119	0x3cb554b4	0.022135116
120	0xbd0218fa	-0.0317621
121	0xbca2bca2	-0.019865338
122	0xbbc1f715	-0.005919347
123	0x3b4692c0	0.0030299872
124	0x3c8fa566	0.017534923
125	0x3c8eb43d	0.017419929
126	0xbb7543ee	-0.0037424522
127	0xbcf38225	-0.029725144
128	0xbdc3c8a9	-0.09559757
129	0xbcedb8f0	-0.02901885
130	0xbca0a0c8	-0.019607916
131	0xbc462065	-0.012092684
132	0xbd4820b8	-0.048859328
133	0xbd69c25a	-0.057070114
134	0xbdb7308d	-0.08944807
135	0xbdf293bc	-0.11844584
136	0x3d3c0436	0.045902453
137	0xbb5f0cd0	-0.0034034736
138	0xbca6e578	-0.020373091
139	0xbb9c68c3	-0.0047732308
140	0x3d68c8d1	0.05683214
141	0xbcec567d	-0.028849835
142	0x3d8e99f8	0.06962961
143	0x3bd262bb	0.006420461
144	0xbcef4447	-0.029207362
145	0xbdc02773	-0.09382524
146	0x3dae68d0	0.08516085
147	0xbcc9d105	-0.024635801
148	0xbd7eaad0	-0.06217462
149	0xbdbaabca	-0.091147974
150	0xbd81d81f	-0.0634005
151	0xbb895a29	-0.004191656
152	0x3c98b809	0.018642442
153	0xbc2903e4	-0.010315869
154	0x3b202383	0.002443523
155	0x3d70c6d1	0.058783356
156	0x3d82c4f8	0.06385225
157	0xbde950df	-0.11392378
158	0x3d1fe92e	0.039040737
159	0xbc491dc0	-0.012275159
160	0x3d99c3e7	0.075080685
161	0x3d03d49f	0.032185193
162	0x3cb56883	0.022144562
163	0xbd0e2711	-0.034705225
164	0xbd98515c	-0.07437393
165	0x3bdf82ae	0.006820998
166	0xbcaeffac	-0.021362148
167	0xbd30f11f	-0.0431987
168	0xbc0ea29b	-0.00870576
169	0x3d2dc3a4	0.042422906
170	0x3b47840b	0.0030443694
171	0xbde5df9f	-0.11224293
172	0xbd957287	-0.07297235
173	0xbd2d195a	-0.042260505
174	0xbcadceb1	-0.021216722
175	0x3b9d20bb	0.0047951615
176	0x3d7b452c	0.061345264
177	0xbc0799f4	-0.008276451
178	0x3cf10bd7	0.029424591
179	0x3c2ee80d	0.010675442
180	0x3d7e3f5c	0.062072143
181	0xbce88d94	-0.028387822
182	0xbd26df60	-0.04074037
183	0x3b0730a0	0.0020628348
184	0x3cbc0109	0.022949712
185	0x3ce8671f	0.028369484
186	0x3d903f61	0.070433386
187	0x3b8133ec	0.003942957
188	0x3caa6c12	0.020803485
189	0x3ce96d9f	0.028494654
190	0xbd1a01fb	-0.037599545
191	0xb9aaf3d1	-0.00032606584
192	0xbc049fcc	-0.008094739
193	0xbcc8ef5d	-0.0245282
194	0xbd9243f4	-0.07141867
195	0xbd25d88b	-0.040489715
196	0xbd1802d3	-0.03711207
197	0x3d9671de	0.07345937
198	0x3d859772	0.065230265
199	0x3cb394bb	0.021921506
200	0x3c191300	0.009342909
201	0x3c250d29	0.010073938
202	0xbd4dcb8c	-0.050242946
203	0x3c8e7bb6	0.017392974
204	0x3da45c10	0.08025372
205	0xbc7f13ab	-0.015568654
206	0x3c1d25e0	0.00959155
207	0xbd60a438	-0.05484411
208	0xbd48b114	-0.048997
209	0x3ccfc73d	0.025363559
210	0x3d5b9209	0.053606067
211	0xbbaef042	-0.0053386996
212	0x3c53b1a8	0.0129207745
213	0x3d47ab5d	0.04874741
214	0xbc80ac15	-0.015707055
215	0xbdd90eeb	-0.105985485
216	0xbdaa6532	-0.08320083
217	0x3d88c1a2	0.066775575
218	0xbd8984e6	-0.067148015
219	0xbdf22b06	-0.11824612
220	0x3d46a832	0.048500247
221	0x3d4d8f23	0.050185334
222	0x3c096978	0.008386962
223	0xbd9c6223	-0.076359056
224	0x3cd78c1e	0.02631193
225	0x3d8562f6	0.06513016
226	0xbd2e22f6	-0.04251381
227	0x3ca284b0	0.019838661
228	0xbdc7260a	-0.09724052
229	0x3d983300	0.074316025
230	0x3d08898d	0.033334304
231	0xbc0b5a4f	-0.008505418
232	0xbd024b54	-0.03181012
233	0xbd9f33f5	-0.07773582
234	0x3cade97b	0.021229496
235	0x3bba3d4c	0.0056835767
236	0x3b8e60af	0.0043450217
237	0xbd3bd0ee	-0.045853548
238	0xbbd9be9e	-0.006645038
239	0x3d5475c3	0.05187012
240	0x3bbf22ae	0.0058329916
241	0xbca13e83	-0.019683128
242	0x3d70067e	0.05859994
243	0xbd3ee440	-0.046604395
244	0x3cc0bd36	0.023527723
245	0xbd3f54e7	-0.04671183
246	0xbd459803	-0.048240673
247	0xbdcf03cc	-0.10108146
248	0x3d512fdc	0.051071033
249	0x3d1d6ce5	0.038433928
250	0x3c251dbc	0.01007789
251	0xbd7a4210	-0.06109816
252	0xbc77e523	-0.015130314
253	0xbdc71da5	-0.09722451
254	0xbbb91165	-0.0056478255
255	0xbae86bef	-0.0017732362

action_model._discrete_distribution.branches.0.bias f4 [3]
0	0xbc490837	-0.012270025
1	0x3c8c4162	0.01712102
2	0xbc46d235	-0.012135078

action_model._discrete_distribution.branches.1.weight f4 [3, 128]
0	0xbc019a7d	-0.007910368
1	0xbb7797a7	-0.00377796
2	0x3c576bdd	0.013148275
3	0xb90229f3	-0.00012413393
4	0x3c90b864	0.01766605
5	0xbd068264	-0.032839194
6	0xbc444535	-0.011979391
7	0x3c09f1e0	0.008419484
8	0x3b8375de	0.0040118536
9	0xbcb302c0	-0.021851897
10	0xbc1a4122	-0.009414943
11	0xbc8b48f3	-0.017002558
12	0x3d1b4d2f	0.037915405
13	0xbd047934	-0.03234215
14	0xbd0a9d36	-0.033841334
15	0xbc002cb2	-0.007823156
16	0xbc4b4f94	-0.01240911
17	0xbc63cc2e	-0.013903661
18	0xbc3d3b1b	-0.011549736
19	0xbc6c23af	-0.0144128045
20	0x3b2fa02b	0.0026798348
21	0x3c07fddb	0.00830027
22	0xbb5c345b	-0.0033600542
23	0xbc1fadcc	-0.009746026
24	0xbc92d001	-0.01792145
25	0x3c052552	0.008126574
26	0xba8cf96a	-0.0010755484
27	0xbc84e7f5	-0.016223887
28	0xbd206532	-0.039159007
29	0x3c810b69	0.015752511
30	0xbccc8341	-0.02496493
31	0xbc13963e	-0.0090079885
32	0xb986a4fd	-0.00025681398
33	0x3ad6fc24	0.0016402048
34	0xbcca54ce	-0.024698641
35	0xbcc1a281	-0.023637058
36	0xbca4b348	-0.02010502
37	0xbbc98fc8	-0.0061511733
38	0x3c122fee	0.00892256
39	0xbc692b5a	-0.014231527
40	0x3cdf5151	0.027260454
41	0x3c935db8	0.017989025
42	0x3c83fac5	0.016110787
43	0x3a87e205	0.0010367042
44	0x3c1c6e39	0.0095477635
45	0x3b7f4f8d	0.0038957328
46	0xbb8ddb88	-0.0043291487
47	0xbc5f3ca1	-0.013625295
48	0x3cf6f9e9	0.030148463
49	0xbc3f3148	-0.011669464
50	0xbc17a738	-0.009256177
51	0x3bdb86e4	0.00669943
52	0x3b671b71	0.003526416
53	0xbc013e83	-0.007888439
54	0xbc175632	-0.009236859
55	0xbccee568	-0.025255874
56	0xbc57f200	-0.013180256
57	0xbcfc6bb8	-0.030813083
58	0x39cb98ca	0.00038833014
59	0xbcbc8add	-0.023015434
60	0xbb1b9684	-0.0023740837
61	0xbbed8bc3	-0.007249327
62	0xbcb4ebe3	-0.022085136
63	0xbcaf6f21	-0.021415295
64	0xbc9049e0	-0.017613351
65	0xbbc82280	-0.0061076283
66	0x3cdb7071	0.026787015
67	0xbcd8ec0d	-0.026479745
68	0xbbf96944	-0.0076114256
69	0xbbebe83e	-0.0071993163
70	0xbbead84b	-0.0071668974
71	0xb97fe176	-0.00024402686
72	0xbb914ee2	-0.0044344524
73	0xba844cc4	-0.0010093679
74	0xbbada1fc	-0.005298851
75	0x3ced33dd	0.028955394
76	0xbcbf1f7b	-0.02333044
77	0x3c9a47dd	0.018833095
78	0xbc9188c9	-0.01776542
79	0xbc59b7e6	-0.013288474
80	0x3ce188ac	0.02753099
81	0xbc51dfee	-0.012809737
82	0xbb1b60e6	-0.002370888
83	0xbb2321a9	-0.002489189
84	0xbcdd79e4	-0.027035661
85	0x3a218c3d	0.000616256
86	0xbc932c17	-0.01796536
87	0x3bf10eeb	0.0073565147
88	0xbc91f03e	-0.017814752
89	0xbc81b36b	-0.015832623
90	0x3bfa9343	0.0076469495
91	0xbc797456	-0.015225491
92	0xbb096ad0	-0.0020968206
93	0xbca8ff17	-0.020629449
94	0xbcac4dcc	-0.02103319
95	0x3ce30025	0.02771003
96	0xbc3bea78	-0.011469476
97	0xbc31c277	-0.010849587
98	0xbc842c48	-0.016134396
99	0x3b241384	0.0025036046
100	0xbcb7e58e	-0.022448327
101	0xbc6a3f68	-0.014297344
102	0xbc813ed7	-0.015777035
103	0xbc3fd85f	-0.011709302
104	0x3afb9e22	0.0019196908
105	0x3b89ca7b	0.0042050458
106	0xbc8ab74a	-0.016933102
107	0x3c335eff	0.010947942
108	0xbc7dad76	-0.015483251
109	0xbaecb8ac	-0.0018060408
110	0xbb99fbd1	-0.0046992083
111	0x3a9812ab	0.0011602243
112	0x3beb99b2	0.007189953
113	0xbbc68d01	-0.0060592894
114	0xbb5944b0	-0.0033152513
115	0xbc5067a6	-0.012720024
116	0xb906fb21	-0.00012872789
117	0x3cb1bcfa	0.021696556
118	0xbca1e9e8	-0.019764856
119	0x3c835a1d	0.01603418
120	0x3bd8d2e4	0.006616937
121	0xbbbdd84e	-0.005793608
122	0xbca27745	-0.019832263
123	0xbc34d5dd	-0.011037317
124	0xbb1818f1	-0.0023208226
125	0x3c1e28f1	0.009653316
126	0xbca27b0e	-0.019834068
127	0xbb7029e1	-0.0036646056
128	0xbdbe359e	-0.092875704
129	0xbcbef806	-0.023311626
130	0x3c9fcf1c	0.019507937
131	0x3cc3eec0	0.023917556
132	0xbdc45458	-0.095864
133	0x3d91a3c4	0.07111314
134	0xbc7bb6ae	-0.015363378
135	0xbdc6f186	-0.09714036
136	0x3d3a1fcd	0.045440484
137	0xbc04478c	-0.008073699
138	0x3d9e6ff0	0.07736194
139	0xbb94fa6c	-0.004546454
140	0x3c97fa18	0.018551871
141	0xbc432c9a	-0.011912489
142	0x3b64d1b4	0.0034915032
143	0x3d151d7c	0.03640507
144	0xbd1dfc18	-0.038570493
145	0x3ba07a64	0.0048974026
146	0xbc5365e0	-0.012902707
147	0xbc3aaa7d	-0.011393187
148	0xbd08ddef	-0.033414777
149	0xbdea8f5f	-0.11453127
150	0x3dd50433	0.104011916
151	0xbd64b3c3	-0.055835497
152	0x3c91f23a	0.017815698
153	0xbd7a4a6e	-0.061106138
154	0xbd38c5a6	-0.045110367
155	0xbba64a38	-0.0050747655
156	0xbc31a208	-0.010841854
157	0xbd03100a	-0.031997718
158	0xbac75c0a	-0.0015209925
159	0x3d5c2297	0.053743925
160	0x3e03fa3b	0.12888424
161	0xbcd20bd2	-0.025640402
162	0xbd617514	-0.055043295
163	0x38aa3547	8.1161554e-05
164	0x3a04c58d	0.0005064838
165	0x3d8ffd0f	0.07030689
166	0xbd53d2e6	-0.0517148
167	0x3dc45bae	0.09587799
168	0x3d1e151b	0.038594346
169	0x3cfac438	0.030611143
170	0xbae9de65	-0.0017842768
171	0xbdd148fb	-0.10218998
172	0x3cc2df5a	0.023788143
173	0x3c90e4c3	0.017687207
174	0x3d65427e	0.055971615
175	0xbca0c13e	-0.019623395
176	0x3c9d17dc	0.019176416
177	0xbd492110	-0.049103796
178	0x3c8d7d24	0.017271586
179	0x3bf4c5c6	0.0074698655
180	0x3d0065e6	0.031347178
181	0xbccc6f65	-0.02495546
182	0x3dab3330	0.083593726
183	0x3c23a1af	0.009987279
184	0x3ca5ef04	0.020255573
185	0x3bf87ace	0.007582999
186	0xbb67b96b	-0.003535832
187	0x37153d63	8.895385e-06
188	0xbd5ba5a2	-0.053624757
189	0x3d673f75	0.056457
190	0x3c539334	0.012913514
191	0xbcd0fe40	-0.02551186
192	0x3dbd0782	0.092299476
193	0x3d77d50a	0.060505904
194	0xbd6d2439	-0.057895873
195	0x3d8bac32	0.06819953
196	0xbd130a24	-0.035898343
197	0xbc892e8d	-0.01674583
198	0x3c9fed04	0.019522198
199	0xbd8cf301	-0.06882287
200	0xbc3598ca	-0.011083791
201	0x3e0aefb3	0.13568
202	0x3ca3b8dd	0.01998561
203	0x3d28e61f	0.041235086
204	0xbcc65359	-0.024209665
205	0x3d45b056	0.04826387
206	0x3e0411da	0.12897435
207	0xbd24ba82	-0.04021693
208	0x3d47f452	0.048816986
209	0xbd013e3d	-0.031553496
210	0x3d59c165	0.05316295
211	0x3bb21cae	0.005435548
212	0x3c5b8431	0.013398216
213	0xbd1d3a5d	-0.038385738
214	0xbd711670	-0.05885929
215	0xbddf9298	-0.109166324
216	0xbdc2f299	-0.09518928
217	0x3b8180e2	0.0039521316
218	0xbc891052	-0.016731415
219	0x3ce989e5	0.028508136
220	0xbb57d7c6	-0.0032935007
221	0xbd37f9c9	-0.044915948
222	0xbceda557	-0.029009504
223	0x3d2b8772	0.041877218
224	0x3d489fe0	0.048980594
225	0x3d3bfb03	0.04589368
226	0x3d9fa943	0.07795956
227	0x3d4a6199	0.049409483
228	0x3a7772d0	0.00094394106
229	0xbc68e5db	-0.014214958
230	0xbc1228c0	-0.008920848
231	0xbd1db444	-0.038501993
232	0xbd81d988	-0.06340319
233	0xbc2ead65	-0.010661458
234	0xbca5bfb7	-0.020233018
235	0xbd7d4624	-0.06183447
236	0x3b859b7d	0.0040773735
237	0x3c6eeb9d	0.014582542
238	0xbb81ce92	-0.0039613927
239	0xbb349d95	-0.0027559747
240	0xbd63f5fd	-0.055654515
241	0xbc34a30c	-0.0110252015
242	0xbcce2371	-0.025163384
243	0x3de7ea74	0.11324015
244	0xbc25b4b2	-0.010113882
245	0xbd1ed55b	-0.03877769
246	0xbb945317	-0.0045265066
247	0xbd2ecace	-0.04267388
248	0xbc36c03a	-0.011154229
249	0xbd06ff22	-0.032958157
250	0xbba9e45c	-0.0051846933
251	0xbdaeab12	-0.08528723
252	0x3cf46fb2	0.029838417
253	0x3c27fb31	0.01025276
254	0x3cabbf04	0.020965107
255	0xbb129359	-0.0022365658

action_model._discrete_distribution.branches.1.bias f4 [3]
0	0xbc339b60	-0.010962337
1	0x3c22b628	0.009931125
2	0xbb8df45e	-0.0043321094
