Assets/SoccerAgentBrain.onnx (onnx, 81432 bytes, 9 tensors)

discrete_act_size_vector f4 [1, 2]
0	0x40400000	3.0
1	0x40400000	3.0

network_body._body_endoder.seq_layers.0.weight f4 [128, 15]
0	0xbe406dab	-0.18791835
1	0xbe968ff5	-0.29406705
2	0x3d887eac	0.06664786
3	0xbdbf3ae3	-0.093374036
4	0xbe9b0b89	-0.30282238
5	0xbdf8848b	-0.121346556
6	0x3d1c400b	0.038147014
7	0xbe6154a8	-0.2200495
8	0xbec01a53	-0.37520084
9	0x3e232848	0.15933335
10	0x3de1b963	0.11021688
11	0xbd9480d8	-0.072511375
12	0x3e136a56	0.14396033
13	0x3e683954	0.22678119
14	0x3d8c5d42	0.06853725
15	0xbd13a817	-0.036048975
16	0xbcc2ef04	-0.023795612
17	0x3eb1c8ec	0.34723604
18	0x3aeb8adb	0.0017970459
19	0x3e797369	0.24360432
20	0x3ef7a187	0.48365423
21	0xbe32bb89	-0.17454351
22	0xbc3ea90e	-0.0116369855
23	0xbca2bc63	-0.01986522
24	0x3eadad35	0.3392121
25	0x3f0b8889	0.5450521
26	0x3d6cc14b	0.057801526
27	0xbccb7635	-0.024836639
28	0xbf2913c0	-0.6604576
29	0xbe8aa2b9	-0.27077273
30	0x3e019131	0.12653042
31	0x3de5e533	0.11225357
32	0xbf15c389	-0.5850149
33	0x3f07e0bd	0.530773
34	0xbdec4bf8	-0.115379274
35	0xbd52f161	-0.051499728
36	0x3df53525	0.11973027
37	0x3e8d3391	0.27578405
38	0xbe2ae5f7	-0.16689287
39	0x3db99a86	0.09062676
40	0xbd44d64b	-0.04805593
41	0x3e11b7b1	0.14230229
42	0x3e2b3582	0.1671963
43	0x3ebf9cf6	0.3742444
44	0x3b836872	0.0040102536
45	0x3e8b0909	0.2715533
46	0x3e37a142	0.17932609
47	0xbdc1e1a2	-0.09466864
48	0x3ea5dbdf	0.3239431
49	0x3e65661a	0.2240223
50	0xbe436ef0	-0.19085288
51	0x3e8d5146	0.2760107
52	0x3ce11c54	0.027479328
53	0x3ecf8270	0.40529203
54	0xbebaceab	-0.364858
55	0x3e8f2092	0.27954537
56	0x3ef99c1c	0.48751915
57	0x3dd9129f	0.10599255
58	0x3de4e9bd	0.111773945
59	0x3e81dfed	0.25366154
60	0xbe0f5fc9	-0.14001383
61	0xbe5c470f	-0.21511482
62	0xbea8a971	-0.32941774
63	0x3e8ad549	0.2711585
64	0xbec19e43	-0.37816057
65	0xb990b68e	-0.00027601834
66	0xbd8848ec	-0.06654534
67	0x3eb21314	0.3478018
68	0x3e041f6e	0.12902614
69	0x3e87e7dc	0.26544082
70	0x3f0bc51d	0.54597646
71	0xbe1253c0	-0.1428976
72	0xbe5bb960	-0.21457434
73	0xbf031694	-0.51206326
74	0xbe0708b7	-0.13186918
75	0x3deb7ad6	0.114980385
76	0xbdc69b54	-0.09697595
77	0xbedc5cde	-0.43039602
78	0xbe3e2e17	-0.1857227
79	0xbe4bedb7	-0.199149
80	0x3da57d1c	0.08080503
81	0x3ef369ac	0.4754156
82	0xbe43f226	-0.19135341
83	0x3d5017e6	0.05080404
84	0xbeef1e7d	-0.46702948
85	0xbe721b45	-0.23643215
86	0xbd080a57	-0.033212986
87	0x3ed1b49a	0.409581
88	0x3f45f05f	0.773199
89	0xbf41f5a6	-0.75765455
90	0xbdcca911	-0.09993184
91	0x3e293c81	0.16526987
92	0xbed68edb	-0.41905865
93	0xbd42ed8e	-0.04758983
94	0x3d867037	0.06564372
95	0x3e085244	0.13312632
96	0x3b8cc816	0.004296313
97	0xbe559248	-0.20856583
98	0x3ca3fbfb	0.020017615
99	0xbeb2d18a	-0.3492549
100	0x3da15a3e	0.078785405
101	0xbe891a67	-0.26777956
102	0x3def9695	0.11698643
103	0xbee2611e	-0.4421472
104	0xbe8ac340	-0.2710209
105	0x3d93e6e8	0.07221776
106	0x3d17f61a	0.037099935
107	0x3c1273ba	0.008938724
108	0xbf2adb18	-0.6674056
109	0x3e82056f	0.2539477
110	0x3e9ae8a0	0.30255604
111	0x3ed97384	0.42470944
112	0x3e087efd	0.13329692
113	0xbe09eeef	-0.13470052
114	0xbc856a7f	-0.016286133
115	0x3e87cab0	0.26521826
116	0x3eaea1df	0.34107873
117	0xbe4d49c3	-0.20047669
118	0xbd3eb29e	-0.04655706
119	0xbf2ef24e	-0.6833848
120	0xbdf492a0	-0.11942029
121	0x3d35f035	0.044418532
122	0xbd5bae36	-0.053632937
123	0x3e2cafed	0.16863985
124	0xbe84b01b	-0.25915608
125	0xbeb25406	-0.3482973
126	0xbefca392	-0.49343544
127	0x3da01c91	0.078179486
128	0x3f1dc9a6	0.61635816
129	0x3dc61aa5	0.09673051
130	0xbe8e1c08	-0.2775576
131	0xbe0b5483	-0.13606457
132	0x3e3287a1	0.17434551
133	0xbdab6da3	-0.08370521
134	0xbe07e7cc	-0.13272017
135	0x3e1e0de1	0.15434982
136	0xbda361d0	-0.07977641
137	0x3e188062	0.14892724
138	0x3e5edde8	0.21764338
139	0x3f0538c0	0.5203972
140	0x3e08e917	0.13370167
141	0x3dc1a697	0.094556026
142	0x3c6ca904	0.014444593
143	0x3c018a11	0.007906453
144	0x3c86e499	0.016466426
145	0xbe76ba2e	-0.2409446
146	0xbe6f7f3f	-0.23388384
147	0xbecd0b87	-0.40047857
148	0x3b915f84	0.004436435
149	0x3edb62ce	0.4284882
150	0xbea242da	-0.3169163
151	0x3e98a257	0.29811355
152	0xbe988276	-0.29787034
153	0xbc064b04	-0.008196596
154	0x3f0e5d6d	0.55611306
155	0xbe8695d0	-0.26286173
156	0xbe77a93a	-0.24185649
157	0xbe2829f8	-0.1642226
158	0x3dae64fb	0.08515354
159	0x3e2647e1	0.16238357
160	0x3d9b3e9c	0.07580301
161	0x3e5c9050	0.21539426
162	0xbe7d39c6	-0.2472907
163	0x3d3ea665	0.046545405
164	0x3dba007d	0.090821244
165	0xbc5ca472	-0.013466941
166	0x3d6fbe93	0.058531355
167	0x3dcc3d59	0.09972639
168	0x3d3dd470	0.046345174
169	0x3ea8ec25	0.32992664
170	0xbe43c283	-0.19117169
171	0x3e05b6d9	0.13058032
172	0x3c60af72	0.013713704
173	0xbe8916e7	-0.26775286
174	0x3e3ebb93	0.18626241
175	0xbebc13e9	-0.3673394
176	0xbe6fe048	-0.234254
177	0x3ee26908	0.44220757
178	0x3d30fe99	0.043211553
179	0x3d810778	0.06300253
180	0xbf0aa7cf	-0.54162306
181	0x3ede336b	0.43398604
182	0xbddfb668	-0.10923463
183	0x3eba730a	0.36415893
184	0xbdce1cf0	-0.10064113
185	0x3d7cd4e7	0.061726477
186	0x3d86b2ee	0.06577097
187	0xbe8db158	-0.27674365
188	0xbf316d91	-0.6930781
189	0xbecf31b0	-0.40467596
190	0x3e52be69	0.20580448
191	0xbf050850	-0.5196581
192	0x3e595d7b	0.21227066
193	0xbcd23c8c	-0.025663637
194	0xbedefcba	-0.4355219
195	0x3eeb8790	0.46001863
196	0xbe131c95	-0.14366372
197	0x3ed11da6	0.40842932
198	0xbe70997f	-0.23496054
199	0x3e8b3216	0.2718665
200	0xbeb14772	-0.3462482
201	0xbe7a94bf	-0.24470805
202	0xbc61cc5a	-0.013781631
203	0x3ef35b9b	0.47530827
204	0x3ed64513	0.41849574
205	0xbde6d77c	-0.11271569
206	0xbe01d0f7	-0.1267737
207	0xbef25e15	-0.47337404
208	0xbece370b	-0.4027637
209	0xbdabe704	-0.08393672
210	0xbf098df1	-0.5373221
211	0xbe8125ef	-0.25224254
212	0xbe9f7a8b	-0.3114818
213	0xbd081528	-0.0332233
214	0xbc915b26	-0.017743658
215	0x3e9d8c74	0.3077122
216	0x3eb1b81b	0.34710774
217	0x3e70b70f	0.23507331
218	0xbe216909	-0.15762724
219	0xbf10af69	-0.56517655
220	0x3e220fec	0.15826386
221	0x3e151e3a	0.14562312
222	0xbe9376ed	-0.2880167
223	0xbc575a91	-0.013144151
224	0xbe0d0c7e	-0.13774297
225	0xbcd62048	-0.02613844
226	0xbe83a678	-0.25712943
227	0xbdf3af9c	-0.11898729
228	0xbdb501c2	-0.08838226
229	0xbec911d7	-0.39271423
230	0xbd94e2c7	-0.07269817
231	0x3b675f5f	0.0035304648
232	0x3e8e8835	0.27838293
233	0x3e0719b0	0.13193393
234	0x3eb6ada3	0.3567935
235	0xbd30bed4	-0.043150738
236	0xbf0fba3e	-0.5614356
237	0xbe151004	-0.1455689
238	0xbe2909d7	-0.1650766
239	0xbd968d18	-0.0735113
240	0x3eeb17cd	0.45916596
241	0xbdbe043a	-0.0927815
242	0xbe90f9ac	-0.28315485
243	0xbdf86ce7	-0.121301465
244	0x3eb16bdb	0.346526
245	0xbed1c493	-0.40970287
246	0x3e751af1	0.23936059
247	0xbe1b98f2	-0.15195063
248	0x3e022eb0	0.12713122
249	0x3ea5bd5a	0.32371026
250	0xbed69055	-0.41906992
251	0xbd6b3cfa	-0.0574312
252	0xbd558922	-0.052132733
253	0xbe975044	-0.29553425
254	0xbd92c75f	-0.07166933
255	0xbe6d8c8f	-0.2319815

network_body._body_endoder.seq_layers.0.bias f4 [128]
0	0x3c846662	0.016162101
1	0x3d6e8141	0.058228735
2	0xbc68077e	-0.0141619425
3	0x3d5ac96c	0.053414747
4	0x3d40b0f6	0.047043763
5	0x3d03e974	0.03220506
6	0x3be6db03	0.007045151
7	0xbbe3c92f	-0.006951473
8	0x3da38bee	0.07985674
9	0xbd4509d2	-0.04810507
10	0x3d86e943	0.0658746
11	0xbbaeead4	-0.0053380523
12	0xbc057741	-0.008146108
13	0xbc9df6af	-0.019282667
14	0x3d20ac0a	0.03922657
15	0xbc40a82e	-0.011758847
16	0xbc124bb7	-0.008929185
17	0xbcdb8238	-0.026795492
18	0xbcb990f4	-0.022652127
19	0xbb8909f3	-0.0041820942
20	0x3b5259f6	0.0032097078
21	0x3d5c42fc	0.05377482
22	0x3c9f8572	0.019472811
23	0xbd032e4d	-0.032026578
24	0x3c997532	0.01873264
25	0x3a92b752	0.001119355
26	0x3cd983d4	0.026552118
27	0x3cfd1737	0.030894859
28	0x3c98e8c3	0.018665677
29	0x3b81dbd8	0.003962975
30	0x3d4b0328	0.049563557
31	0x3cad130b	0.021127244
32	0xbd1c8f70	-0.03822273
33	0xbc0313ef	-0.008000358
34	0xbc36f7a4	-0.011167441
35	0x3db699d1	0.08916057
36	0x3da223ce	0.079169855
37	0x3b964e1e	0.004586949
38	0x3cb9794f	0.022640852
39	0xbc71909d	-0.014743951
40	0x3d13fe80	0.036131382
41	0xbcb939ce	-0.022610571
42	0x3cc43138	0.02394925
43	0x3d196fb1	0.037460033
44	0x3bfbf903	0.0076895966
45	0x3cd2f9c3	0.025753861
46	0x3a4e05e3	0.00078591536
47	0x3d133540	0.035939455
48	0x3be6c9aa	0.007043083
49	0x3a21cceb	0.0006172198
50	0xbc178796	-0.009248635
51	0x3cb6f8d2	0.022335444
52	0xbbf65593	-0.0075175255
53	0x3dd4b14b	0.103853785
54	0x3d64f552	0.05589802
55	0x3c045038	0.008075766
56	0x3dd6d430	0.1048969
57	0x3c3da407	0.011574752
58	0x3d2287f4	0.039680436
59	0xbc10b93e	-0.008833228
60	0x39b51979	0.0003454199
61	0x3d2d21fb	0.042268734
62	0xbcb4aa16	-0.02205376
63	0x3b066eb6	0.0020512766
64	0xbca40193	-0.020020282
65	0x3d069b4a	0.03286294
66	0x3c2d79eb	0.01058815
67	0xbc6eeff4	-0.0145835765
68	0x3cc82f91	0.024436744
69	0x3dc8a15a	0.097964
70	0x3c87c322	0.016572539
71	0x3cc0aae1	0.023518981
72	0x3c94aa87	0.01814772
73	0x3d5455de	0.0518397
74	0x3d1c4f01	0.03816128
75	0x3cab1958	0.020886108
76	0x3c6da610	0.014504924
77	0x3cb3f5b7	0.021967752
78	0x3bc58164	0.0060273875
79	0x3d2b7369	0.04185811
80	0xbcd1a6a9	-0.025592165
81	0x3c4d1103	0.012516263
82	0x3c6768dc	0.0141241215
83	0x3cd32023	0.02577216
84	0xbbda8707	-0.0066689285
85	0x3ca24a42	0.0198108
86	0x3b1a7513	0.0023568317
87	0x3b18bbf2	0.0023305384
88	0x3d003284	0.031298175
89	0x3cc780d8	0.02435343
90	0x3cc69512	0.024241004
91	0x3c87ef4e	0.016593602
92	0xbcac4c7d	-0.021032566
93	0x3d1f03d5	0.038822014
94	0xbd0e7a4d	-0.034784604
95	0xbb8f0d81	-0.0043656235
96	0x397bad35	0.0002400175
97	0x3d0cb36a	0.03435079
98	0xbceee08f	-0.029159812
99	0x3c602e4b	0.013682912
100	0x3cb6e3ba	0.022325385
101	0x3b71f22d	0.003691803
102	0x3d914b44	0.07094434
103	0x3c24ed16	0.010066291
104	0x3c7374e9	0.0148594165
105	0xbba93493	-0.005163738
106	0xbc1849a9	-0.009294906
107	0x3d8abef6	0.06774704
108	0x3be150ef	0.006876103
109	0x3c1f63b6	0.009728363
110	0x3b90a9e0	0.004414782
111	0x3c4fe0a6	0.012687838
112	0xbc79338b	-0.015210043
113	0xbcebd0f2	-0.028786156
114	0x3c9822e7	0.01857133
115	0x3c342746	0.010995692
116	0xbcccf310	-0.025018245
117	0x3d168d6e	0.03675597
118	0xbce55ffb	-0.027999869
119	0x3b94b6ea	0.0045384066
120	0x3c3e3149	0.01160843
121	0xbcf0af42	-0.029380444
122	0x3b9127f4	0.0044298116
123	0x3ce97475	0.028497914
124	0x3caa8d06	0.020819198
125	0xbd64b9b7	-0.055841174
126	0x3d354b85	0.044261474
127	0xba5db05d	-0.0008456761

network_body._body_endoder.seq_layers.2.weight f4 [128, 128]
0	0xbcafd2a7	-0.021462752
1	0xbdd64262	-0.1046188
2	0xbc582ddc	-0.0131945275
3	0xbd3e74d6	-0.046498142
4	0xbd263d1a	-0.040585615
5	0xbd913d6c	-0.070917934
6	0xbd053416	-0.032520376
7	0x3d1e3857	0.03862795
8	0xbe285f00	-0.1644249
9	0x3c3ebf2f	0.011642261
10	0xbc172bc9	-0.009226748
11	0x3dca5c58	0.098808944
12	0xbcea7112	-0.02861837
13	0x3d14dc03	0.036342632
14	0xbd054a94	-0.032541826
15	0xbd5b1289	-0.053484473
16	0xbc90d4db	-0.017679622
17	0x3df63375	0.120215334
18	0xbe3e16b0	-0.18563342
19	0xbe8450f9	-0.25843027
20	0x3df8665e	0.121289
21	0x3e0a20a1	0.1348901
22	0x3cdcae79	0.026938664
23	0x3d14b5ae	0.036306076
24	0xbd681d95	-0.056668837
25	0xbdfaa6fb	-0.1223888
26	0x3d83a314	0.06427589
27	0xbd120cf6	-0.03565689
28	0xbd0c0187	-0.034181144
29	0xbd1eef4e	-0.038802437
30	0x3e4ede01	0.20201875
31	0x3e1673f0	0.14692664
32	0x3abbca80	0.0014327317
33	0x3e09c7f8	0.13455188
34	0x3b40a136	0.0029392964
35	0x3d5b8ea2	0.053602822
36	0x3e19e255	0.15027745
37	0x3d37b8d8	0.044854015
38	0xbb972836	-0.004612948
39	0xbd71b481	-0.059010033
40	0xbe322d94	-0.17400199
41	0x3d575795	0.05257376
42	0x3dbe5232	0.09293021
43	0xbdd9f364	-0.10642126
44	0xbd50730e	-0.050890975
45	0x3d67f1af	0.05662697
46	0xbce2e297	-0.027695937
47	0xbdc48afb	-0.09596821
48	0x3d9e7956	0.07737987
49	0x3e0ebffe	0.13940427
50	0x3d953f4c	0.072874635
51	0xbd2b39da	-0.04180322
52	0x3d37dfbf	0.044891115
53	0xbe8fdc3a	-0.28097707
54	0xbe1d81cf	-0.1538155
55	0x3d1aa515	0.03775509
56	0xbe71f218	-0.23627508
57	0x3d179d1f	0.037015077
58	0xbdff6967	-0.12471276
59	0xbd93a65d	-0.07209466
60	0x3d25aa5a	0.040445663
61	0xbcf78594	-0.030215062
62	0xbe014c86	-0.12626848
63	0xbdad98d4	-0.08476415
64	0x3c1c61e0	0.00954482
65	0xbd7a237f	-0.061069008
66	0xbd622100	-0.055207253
67	0xbdcc01f6	-0.099613115
68	0x3c3c6b1c	0.011500146
69	0xbcd7db9c	-0.026349835
70	0x3d1b82f4	0.037966684
71	0xbd12c122	-0.035828717
72	0x3dea6e8d	0.11446867
73	0xbe0f3719	-0.13985862
74	0xbd7c7beb	-0.061641615
75	0xbe07a728	-0.13247359
76	0x3ce04440	0.027376294
77	0xbdec0c5f	-0.11525797
78	0x3e3c623c	0.18396848
79	0xbc73d8ad	-0.0148832025
80	0x3d1a6fa1	0.037704114
81	0xbdbd04c9	-0.09229428
82	0x3d24ea9c	0.040262803
83	0x3e289e18	0.16466558
84	0xbe0d2286	-0.13782701
85	0x3c550e1d	0.013003853
86	0x3c57fe94	0.013183255
87	0xbd7b6013	-0.06137092
88	0xbddcdf27	-0.107847504
89	0x3e0dc91a	0.13846245
90	0x3d40370a	0.04692749
91	0x3e3f4af4	0.18680936
92	0x3d160a81	0.03663111
93	0x3d87f2da	0.06638117
94	0xbd94ff83	-0.072752975
95	0x3d936953	0.071978234
96	0x3d7882fc	0.06067179
97	0xbdcd674b	-0.10029467
98	0x3e0edea9	0.13952126
99	0xbda86126	-0.082216546
100	0xbd40ca30	-0.04706782
101	0xbdc21bb3	-0.094779395
102	0xbd9864b5	-0.07441083
103	0x3c4cf454	0.012509424
104	0xbcbeb8f0	-0.023281544
105	0xbb9c90d8	-0.004778009
106	0xbd994ddd	-0.07485554
107	0xbdb9117d	-0.09036539
108	0x3dc3f785	0.09568695
109	0xbd924553	-0.07142129
110	0x3d41dbfd	0.047328938
111	0xbd5fe1e1	-0.054658774
112	0xbd21cfad	-0.039504696
113	0xbd5750d7	-0.05256733
114	0x3e0430f9	0.12909307
115	0x3d903528	0.07041389
116	0x3d08cae1	0.033396605
117	0xbe2527c0	-0.16128445
118	0xbd3f17e9	-0.046653662
119	0x3d4d40cb	0.05011062
120	0xbd658e4b	-0.056043904
121	0x3e0ca7a2	0.13735822
122	0x3d744904	0.059639946
123	0xbddfe5f1	-0.1093253
124	0xbd32a2c8	-0.04361227
125	0x3dd37cdd	0.1032655
126	0x3c244372	0.010025846
127	0xbdebdcd1	-0.11516727
128	0x3b627132	0.0034552333
129	0x3e064d6a	0.13115469
130	0xbc457a62	-0.012053104
131	0x3c0d9b74	0.00864302
132	0x3ded6e80	0.11593342
133	0x3c56cc55	0.01311024
134	0xbb8f9a44	-0.0043824036
135	0xbd6260aa	-0.055267967
136	0xbcdb8eae	-0.026801433
137	0xbdc875e2	-0.09788109
138	0x3da210ce	0.079133615
139	0xbcd78194	-0.026306905
140	0xbc33d2aa	-0.010975519
141	0xbe1870b4	-0.14886743
142	0x3e089f07	0.13341914
143	0x3d003b33	0.031306457
144	0x3df560c4	0.11981347
145	0xbd5ab628	-0.053396374
146	0xbcbec905	-0.023289213
147	0x3db3a0a7	0.087708764
148	0xbbefde80	-0.0073202252
149	0x3d48969b	0.048971754
150	0xbd10b0ec	-0.035324976
151	0x3c306acf	0.010767653
152	0x3dfec6d6	0.12440269
153	0xbd0e32dc	-0.034716472
154	0x3d64ca3e	0.055856936
155	0x3e51fc27	0.20506345
156	0x3d06ec2a	0.032940067
157	0x3d7bee10	0.06150633
158	0xbc55ac6f	-0.0130416
159	0xbd125842	-0.0357287
160	0xbda3bb0b	-0.0799466
161	0x3e0f17b6	0.13973889
162	0x3de2b994	0.110705525
163	0xbcc412b5	-0.023934701
164	0xbc08686b	-0.008325676
165	0x3e26e552	0.16298416
166	0x3dd8ceec	0.10586342
167	0x3d91bff4	0.0711669
168	0x3e2a888c	0.16653651
169	0xbd95db11	-0.07317174
170	0x3b07e259	0.002073428
171	0x3e34156c	0.17586297
172	0x3d7c4eed	0.061598707
173	0x3d508b01	0.050913814
174	0xbd93b54c	-0.07212314
175	0xbc6a3f65	-0.014297341
176	0xbdeab319	-0.114599414
177	0x3e3bb906	0.183323
178	0xbdacab8f	-0.0843116
179	0x3d72fdd6	0.059324108
180	0x3ded54e8	0.1158846
181	0xbca878b8	-0.020565376
182	0x3dab1d69	0.08355219
183	0xbc458785	-0.012056236
184	0xbcac0c03	-0.021001821
185	0xbd8e7f03	-0.06957819
186	0x3dedc784	0.1161032
187	0xbdcb95ab	-0.09940656
188	0xbd2aa045	-0.04165675
189	0x3d168876	0.036751233
190	0xbc9a8fe1	-0.018867435
191	0xbc46ccb9	-0.012133771
192	0x3da543e4	0.0806959
193	0x3d39a9bd	0.04532789
194	0xbd228045	-0.03967311
195	0xbc928524	-0.017885752
196	0x3dc595ae	0.0964769
197	0x3e3484cd	0.17628784
198	0x3dcbe4d3	0.09955754
199	0x3d13235c	0.035922393
200	0xbc35f228	-0.011105098
201	0xbd7c9e5e	-0.06167447
202	0x3e1ca6ed	0.15298052
203	0xbb31d3e9	-0.0027134365
204	0x3dc60185	0.096682586
205	0xbd6c33ff	-0.057666775
206	0x3d241106	0.040055297
207	0xbb4ff5cd	-0.0031732202
208	0xbd3e722c	-0.0464956
209	0xbd8fcfa3	-0.070220254
210	0x3d32362c	0.043508694
211	0x3e02b343	0.12763695
212	0xbce414e8	-0.027842
213	0x3d5ce48c	0.053928897
214	0x3e00cce1	0.12578155
215	0x3da8629c	0.08221933
216	0x3db0dfe6	0.08636455
217	0x3d6b82e9	0.057497893
218	0xbe2d5dd3	-0.16930322
219	0x3cfeebc1	0.031118276
220	0xbde17ded	-0.110103466
221	0x3da10bb4	0.0786356
222	0x3da3ece5	0.080041684
223	0xbe29a7d5	-0.16567929
224	0xbd5fcd56	-0.054639183
225	0x3dd6ddf7	0.10491555
226	0xbdd6735c	-0.10471222
227	0xbe45a8cf	-0.19302677
228	0xbd02b847	-0.03191402
229	0xbca0578b	-0.019572994
230	0x3e00df21	0.12585117
231	0xbc926dbe	-0.017874595
232	0xbdbf5b31	-0.09343565
233	0xbd88a3fa	-0.06671901
234	0xbe7e5aab	-0.24839275
235	0x3d8a7683	0.067608856
236	0x3d49c3c8	0.049258977
237	0x3d73884e	0.059456162
238	0x3d21db73	0.039515924
239	0xbd5f8f1d	-0.054579843
240	0xbd895f78	-0.06707662
241	0x3d0ad813	0.03389747
242	0xbe524d64	-0.20537335
243	0x3d54b283	0.051928055
244	0x399eaecf	0.0003026635
245	0xbe31b2be	-0.17353341
246	0xbdd31902	-0.10307504
247	0xbdd6ce13	-0.10488524
248	0xbd0a25c4	-0.033727422
249	0x3de19709	0.11015136
250	0x3e0dec0d	0.13859577
251	0xbe369fdb	-0.17834418
252	0x3d537dea	0.051633753
253	0x3db86317	0.09003275
254	0x3c3eb058	0.011638723
255	0xbd872868	-0.06599504

network_body._body_endoder.seq_layers.2.bias f4 [128]
0	0x3d34ad4e	0.04411059
1	0xbb7e95d0	-0.003884662
2	0xbbb1a631	-0.005421423
3	0xbc5ba57f	-0.013406157
4	0xbba4cef7	-0.005029555
5	0xbc6951f9	-0.014240735
6	0xbcc95358	-0.024575874
7	0x3ca39fb9	0.019973623
8	0x3cf41f32	0.029800031
9	0xbbb28c8c	-0.0054488834
10	0x3b908bd9	0.0044112024
11	0xbb284804	-0.002567769
12	0x3d027b9a	0.031856157
13	0xbaefa973	-0.0018284753
14	0x3c2cb4b9	0.0105411345
15	0x3b873798	0.0041265003
16	0xbc1d8f35	-0.009616663
17	0xbc9b3b64	-0.018949218
18	0x3cda77e8	0.026668504
19	0xbcc7d91b	-0.024395516
20	0xbbf25878	-0.0073958
21	0x3cb25583	0.02176929
22	0x3c341fc5	0.010993903
23	0xbac7d3a4	-0.0015245569
24	0x3c6cd6a9	0.014455476
25	0xbc455af7	-0.0120456135
26	0xbb15f4f4	-0.00228816
27	0x3ca6fc50	0.020383984
28	0x3cd90c64	0.026495166
29	0x3d11c9c2	0.035592802
30	0x3c79198e	0.015203847
31	0xba51f6b7	-0.00080094807
32	0x3d1bbb9f	0.038020726
33	0xbb353ac5	-0.0027653438
34	0x3b346aa0	0.0027529374
35	0x3bb946e6	0.0056542037
36	0xba518f93	-0.00079941115
37	0x3ca597e7	0.020214034
38	0xbca83d47	-0.020537032
39	0x3baf0a1b	0.005341781
40	0x3b575bd1	0.0032861123
41	0x3d15d4e8	0.036579996
42	0xbc24eece	-0.010066701
43	0x3d212565	0.039342303
44	0x3d09e1e8	0.033662707
45	0xbb395d22	-0.0028284271
46	0xbc0cb75c	-0.008588638
47	0xbbaa6815	-0.005200396
48	0x3bfdf0df	0.0077496613
49	0xbc968e77	-0.01837848
50	0x3c09583e	0.008382855
51	0x3c0ad16c	0.008472782
52	0x3c07090f	0.008241906
53	0x3b02c1e0	0.0019951984
54	0x3c8a794e	0.016903546
55	0x3c8b1ae0	0.016980588
56	0x3c871890	0.016491205
57	0x3c9ba8fd	0.019001478
58	0x3d274dce	0.040845685
59	0x3bcee830	0.0063143
60	0xbb00613a	-0.0019589202
61	0x3cee7b1d	0.02911144
62	0xbb676cfe	-0.0035312767
63	0xbc394bd2	-0.011309581
64	0x3cc6b767	0.024257375
65	0xbc13be34	-0.009017516
66	0x3ac865fe	0.0015289185
67	0x3c37ff37	0.011230282
68	0xbc423cc5	-0.011855309
69	0x3d46b034	0.048507884
70	0x3ceff98d	0.0292938
71	0x3b6802b6	0.0035402006
72	0x3b940223	0.0045168563
73	0x3d1234ad	0.035694767
74	0x3bc30a9e	0.0059521934
75	0xbc245576	-0.010030141
76	0x3cc102e2	0.023560945
77	0xbc274793	-0.010209936
78	0x3c9b9dd1	0.018996151
79	0xbc8eaf74	-0.017417647
80	0x3c8a907c	0.016914599
81	0x3c2f37b2	0.010694431
82	0x3cea39ed	0.028592074
83	0x3991e1ac	0.00027824694
84	0x3bb67429	0.0055680466
85	0x3c671abf	0.014105498
86	0xbafa357a	-0.0019089424
87	0x3d0320c1	0.03201366
88	0x3caf2728	0.021380976
89	0x3cb75625	0.022379944
90	0x3c3624a3	0.011117133
91	0x3cc78cfe	0.024359223
92	0x3c96a577	0.018389447
93	0x3c881aed	0.016614402
94	0x3bc3245c	0.005955262
95	0x3c0dea06	0.008661753
96	0x3cd1c967	0.025608731
97	0x3d01ade5	0.03165998
98	0xba920178	-0.0011139354
99	0x3cdc313e	0.02687895
100	0xbc61644c	-0.013756823
101	0x3c9d0cc8	0.019171134
102	0x3c66bd61	0.014083237
103	0xbbe5dc74	-0.0070148055
104	0xbc1705cb	-0.00921769
105	0x3b7ced94	0.0038593756
106	0x3c329d9e	0.010901837
107	0xbb47d474	-0.0030491622
108	0xbbeb0e98	-0.0071733706
109	0xbba72b9a	-0.0051016333
110	0xbc937e0e	-0.018004443
111	0x3ca84462	0.02054042
112	0x3bc13b42	0.0058969567
113	0xbcbbf86d	-0.022945607
114	0x3cec1f58	0.02882354
115	0x3c0270a8	0.00796143
116	0x3c21ee44	0.009883467
117	0x3c27bedb	0.010238375
118	0xbc85407a	-0.016266096
119	0x3ca23728	0.019801691
120	0x3c95588a	0.018230695
121	0x3be4377f	0.0069646235
122	0x3bdf1c33	0.0068087815
123	0xbba12782	-0.00491804
124	0x3b8a09cb	0.004212593
125	0x3b987ce5	0.0046535605
126	0x3b6c04e8	0.0036013667
127	0x3ab88a7b	0.0014079356

action_model._discrete_distribution.branches.0.weight f4 [3, 128]
0	0x3cd54f31	0.026038738
1	0x3d293093	0.04130609
2	0x3c8eb611	0.0174208
3	0x3bdfe71c	0.0068329703
4	0x3cdf3c23	0.027250355
5	0x3d0297c2	0.03188301
6	0x3a777796	0.0009440122
7	0x3cff5cd9	0.031172203
8	0xbc8667e9	-0.01640697
9	0xbbb5c72a	-0.005547424
10	0xbbb6ec7f	-0.0055823918
11	0xbc8f8d04	-0.017523296
12	0x3c9a1ebb	0.018813482
13	0x3bfdfa0a	0.0077507542
14	0xbc28a0a3	-0.010292205
15	0x3bacdf91	0.0052756746
16	0xbc237e22	-0.009978803
17	0xba888c6d	-0.0010417827
18	0xbadd607c	-0.0016889716
19	0xbc91b29a	-0.01778536
20	0x3b2bdc12	0.0026223701
21	0x3c492841	0.012277664
22	0xbc1b5908	-0.009481676
23	0x3bd04a75	0.006356532
24	0x3b1bd455	0.0023777683
25	0x3cbddfdf	0.02317804
26	0xbcaa25fd	-0.020770067
27	0xbbd5a75b	-0.0065201945
28	0x3c2bdf6c	0.01049028
29	0x3d0fb705	0.03508665
30	0xbcc039a2	-0.023464981
31	0xbae92833	-0.001778847
32	0xbc83d9c9	-0.016095059
33	0xbc0e42f3	-0.008682954
34	0xbd134224	-0.03595175
35	0xba31754d	-0.00067694933
36	0x3ce006c5	0.027346978
37	0x3c9121ff	0.017716406
38	0xbba915cd	-0.0051600696
39	0x3c1005c9	0.008790442
40	0xbb2024b6	-0.0024435944
41	0x3c9e70a6	0.019340824
42	0x3badb3e1	0.0053009843
43	0x3d0c9f5c	0.034331664
44	0x3bbce8f0	0.005765073
45	0x3cf5f92f	0.030026047
46	0xba079ac0	-0.0005172901
47	0x3bc053d3	0.0058693676
48	0x3c83d707	0.016093744
49	0xbc039f15	-0.008033534
50	0x3baee826	0.005337733
51	0xbb9e213b	-0.0048257387
52	0xbbf7b686	-0.0075596003
53	0x3c9230a9	0.017845469
54	0x3cf1c84b	0.029514452
55	0xbc9d69e2	-0.019215528
56	0xbc9f9aba	-0.019482959
57	0xba6e12fb	-0.0009081808
58	0xbbd40642	-0.0064704726
59	0xbcfa4657	-0.030551119
60	0xbcb97818	-0.022640273
61	0xbc4789e4	-0.012178872
62	0xbc587768	-0.013212062
63	0x3bdf9b47	0.0068239304
64	0xbc3905b2	-0.011292862
65	0x3c304f77	0.010761133
66	0x3d548ed0	0.05189401
67	0x3c6d3c89	0.014479765
68	0x3aecffef	0.0018081645
69	0xbc410eb5	-0.011783292
70	0x3c024975	0.007952084
71	0xbca35558	-0.019938156
72	0xbcc108df	-0.0235638
73	0xbc22860e	-0.009919656
74	0x3cab10fa	0.020882118
75	0x3ce25d84	0.027632482
76	0x383012fd	4.1979354e-05
77	0x3c119605	0.008885865
78	0x3bec5c05	0.007213118
79	0xbaf4df6d	-0.0018682309
80	0x3c07675a	0.008264387
81	0xbc36e7db	-0.011163677
82	0xbafe2294	-0.0019388967
83	0xbd2b57ed	-0.0418319
84	0xbc1243cb	-0.008927296
85	0xbc660704	-0.014039759
86	0xbcf569de	-0.029957708
87	0x3d09bd2c	0.033627674
88	0x3c50fcb0	0.012755558
89	0xbc353338	-0.011059575
90	0x3d04ce9a	0.032423593
91	0x3d013053	0.031540226
92	0x3c0f3538	0.008740716
93	0xbcbbec96	-0.022939961
94	0xbd0e4dd1	-0.03474218
95	0x3d0586f8	0.03259942
96	0x3c4699af	0.012121602
97	0xbc87ee36	-0.01659308
98	0x3ca0b193	0.019615924
99	0x3a907055	0.0011019806
100	0x3c3e30ec	0.011608344
101	0xbb93b9bd	-0.0045082257
102	0xbc946a1a	-0.018117
103	0xbc4193e1	-0.011815042
104	0xbc535201	-0.012897969
105	0x3d3b82a9	0.045778904
106	0xbc69fbca	-0.014281223
107	0xbab82772	-0.0014049842
108	0xbc20f3b5	-0.009823729
109	0x3bb2bd7b	0.0054547167
110	0x3c9f68d2	0.019459162
111	0x3b5baede	0.0033520977
112	0x3ba7114a	0.0050984966
113	0xbcb7f717	-0.022456689
114	0xbc8b716c	-0.017021857
115	0x3cafc96c	0.02145835
116	0xbb343477	-0.0027497092
117	0x3cdb39e4	0.026761003
118	0xbcdaa0d7	-0.026688023
119	0x3ca414c0	0.020029426
120	0xbcffb871	-0.031215878
121	0xbc98d2a5	-0.01865513
122	0xbbb5f906	-0.0055533675
123	0x3b11196c	0.0022140397
124	0x3c75a293	0.014992374
125	0x3c51ee4b	0.012813161
126	0xbb6dea58	-0.003630301
127	0xbcf4aa0b	-0.029866239
128	0xbdc1bf0a	-0.09460266
129	0xbcea701c	-0.028617911
130	0xbc954f98	-0.01822643
131	0xbc397f8d	-0.011321914
132	0xbd471557	-0.048604336
133	0xbd64849a	-0.05579052
134	0xbdb734e4	-0.08945635
135	0xbdf26344	-0.1183534
136	0x3d3bcbe7	0.045848753
137	0xbb6818ec	-0.0035415245
138	0xbca69c13	-0.020338094
139	0xbb9e409c	-0.0048294794
140	0x3d6ae5d2	0.05734808
141	0xbcefe8f8	-0.029285893
142	0x3d8fac7d	0.070153214
143	0x3bcb98ac	0.0062132683
144	0xbcf295f8	-0.029612526
145	0xbdc038af	-0.093858115
146	0x3dafe7a7	0.08589106
147	0xbccaa2e6	-0.02473588
148	0xbd7e6771	-0.06211037
149	0xbdb94ad3	-0.09047475
150	0xbd81dc1b	-0.0634081
151	0xbb54fd5d	-0.003249965
152	0x3c97c37b	0.01852583
153	0xbc1dfc14	-0.00964262
154	0x3b163fa1	0.002292611
155	0x3d707800	0.05870819
156	0x3d827448	0.06369835
157	0xbde868a9	-0.11348087
158	0x3d200814	0.039070204
159	0xbc4d83ac	-0.0125436
160	0x3d98edd0	0.07467234
161	0x3d04b6b9	0.03240082
162	0x3cb1b236	0.021691423
163	0xbd0f769d	-0.035025228
164	0xbd97ec48	-0.07418114
165	0x3bdd29b4	0.006749356
166	0xbcaec061	-0.021331968
167	0xbd2f0040	-0.042724848
168	0xbc03df6d	-0.008048874
169	0x3d2fe7ef	0.0429458
170	0x3b363d37	0.0027807483
171	0xbde6267c	-0.11237809
172	0xbd961be2	-0.07329537
173	0xbd2a165c	-0.04152523
174	0xbcae043b	-0.021242252
175	0x3b900ca6	0.004396039
176	0x3d7c1246	0.061540864
177	0xbc07f864	-0.008298967
178	0x3cf1fdce	0.029539969
179	0x3c2c651f	0.010522156
180	0x3d802a57	0.06258076
181	0xbcf02342	-0.029313687
182	0xbd2609c5	-0.04053666
183	0x3ae85702	0.0017726126
184	0x3cb8f6e8	0.022578672
185	0x3ce638fa	0.02810334
186	0x3d9067c0	0.07051039
187	0x3b7e1f11	0.0038775841
188	0x3ca69abb	0.020337453
189	0x3ce8d981	0.028424026
190	0xbd1adc1e	-0.037807576
191	0xba0701d3	-0.0005150113
192	0xbc0745a8	-0.008256353
193	0xbcc068f8	-0.023487553
194	0xbd915ae7	-0.07097416
195	0xbd25120e	-0.04030042
196	0xbd184219	-0.03717241
197	0x3d96c1d2	0.07361187
198	0x3d862d13	0.06551566
199	0x3cafa4aa	0.021440823
200	0x3c11cc5f	0.0088988235
201	0x3c25508e	0.0100900065
202	0xbd4f0874	-0.05054517
203	0x3c90ed6d	0.017691338
204	0x3da4c63b	0.08045622
205	0xbc609335	-0.013706972
206	0x3c1ec677	0.009690872
207	0xbd610027	-0.054931786
208	0xbd47fe4e	-0.04882651
209	0x3ccc3a97	0.024930282
210	0x3d5a8876	0.053352796
211	0xbbaf7c47	-0.005355391
212	0x3c510548	0.012757607
213	0x3d489664	0.04897155
214	0xbc81b121	-0.015831532
215	0xbdd7020f	-0.104984395
216	0xbda9b712	-0.08286871
217	0x3d883878	0.066513956
218	0xbd896424	-0.067085534
219	0xbdf35222	-0.118809
220	0x3d473cc8	0.04864195
221	0x3d4d0703	0.050055515
222	0x3c027433	0.007962274
223	0xbd9c8ff9	-0.07644648
224	0x3cd3eae4	0.02586884
225	0x3d844598	0.064585865
226	0xbd2e054a	-0.042485513
227	0x3ca16381	0.019700767
228	0xbdc834de	-0.097757086
229	0x3d97128f	0.07376587
230	0x3d0803f7	0.033206906
231	0xbc0d7b6a	-0.008635381
232	0xbd02a231	-0.03189296
233	0xbd9f3dbc	-0.07775447
234	0x3caac838	0.020847425
235	0x3b9e65ce	0.0048339134
236	0x3b86253e	0.004093795
237	0xbd34eed8	-0.04417309
238	0xbbd8be19	-0.0066144583
239	0x3d5636f7	0.052298512
240	0x3bdc9f69	0.0067328704
241	0xbca18f6e	-0.019721713
242	0x3d6e2b72	0.0581469
243	0xbd3eab3b	-0.046550017
244	0x3cbec3f7	0.023286803
245	0xbd3ec644	-0.0465758
246	0xbd460768	-0.048346907
247	0xbdce19f4	-0.10063544
248	0x3d4ffe33	0.050779533
249	0x3d1ad145	0.03779723
250	0x3c21f4ef	0.009885057
251	0xbd7a4ce7	-0.061108496
252	0xbc5e602b	-0.013572733
253	0xbdc4861c	-0.09595892
254	0xbbbc23a1	-0.005741552
255	0xbb053ccc	-0.0020330427

action_model._discrete_distribution.branches.0.bias f4 [3]
0	0xbc4b5b70	-0.012411937
1	0x3c89d083	0.016823059
2	0xbc407e96	-0.01174893

action_model._discrete_distribution.branches.1.weight f4 [3, 128]
0	0xbc0cc3b5	-0.008591582
1	0xbb09de0b	-0.002103689
2	0x3c4396b4	0.011937786
3	0xba954682	-0.0011388811
4	0x3c9d29c8	0.019184962
5	0xbd07c96a	-0.033151068
6	0xbc38b10b	-0.011272679
7	0x3c0e8af1	0.008700118
8	0x3ba4c059	0.0050278124
9	0xbca800e8	-0.020508245
10	0xbc00d0e1	-0.007862301
11	0xbc848b06	-0.016179573
12	0x3d22908b	0.03968863
13	0xbcf94536	-0.03042851
14	0xbd05d6ab	-0.032675426
15	0xbbe583b6	-0.0070042266
16	0xbc31ead3	-0.010859209
17	0xbc570bc3	-0.013125363
18	0xbc19d9f4	-0.009390343
19	0xbc59422d	-0.013260406
20	0x3b7568da	0.003744653
21	0x3bf8f25b	0.0075972504
22	0xbb137223	-0.002249845
23	0xbc3ab79b	-0.011396314
24	0xbc8308ab	-0.015995344
25	0x3bcfe416	0.0063443286
26	0x39e87623	0.00044338507
27	0xbc6da1dc	-0.014503922
28	0xbd1c71ae	-0.03819435
29	0x3c916d08	0.017752185
30	0xbcb98b1f	-0.022649346
31	0xbc09c6be	-0.0084092
32	0x3b059a91	0.0020386318
33	0x3b50480f	0.0031781232
34	0xbcbcb506	-0.023035537
35	0xbcba452f	-0.022738067
36	0xbca02d8e	-0.019552972
37	0xbba2d89b	-0.004969669
38	0x3c1f4297	0.009720466
39	0xbc4eb81d	-0.012617138
40	0x3ce302cb	0.027711293
41	0x3ca438f7	0.020046694
42	0x3c703d4b	0.014663051
43	0x3b8194a5	0.0039544874
44	0x3c31cbb7	0.010851792
45	0x3b7812fe	0.0037853117
46	0xbb3299b6	-0.0027252263
47	0xbc450329	-0.012024679
48	0x3cef7d1a	0.029234458
49	0xbc3a9996	-0.011389157
50	0xbbef286b	-0.0072985194
51	0x3c03c9a2	0.0080436785
52	0x3b9ce435	0.0047879466
53	0xbc02eed5	-0.007991512
54	0xbc0a72f8	-0.008450262
55	0xbcc1a08b	-0.023636123
56	0xbc389b4a	-0.011267493
57	0xbcf25e4e	-0.029585984
58	0x3ab51eb2	0.0013818352
59	0xbcaf66bb	-0.02141129
60	0xb9427160	-0.00018543517
61	0xbbccedd5	-0.0062539377
62	0xbcadaa2e	-0.021199312
63	0xbca0540c	-0.019571327
64	0xbc854c49	-0.016271727
65	0xbba9f411	-0.0051865657
66	0x3ce65129	0.028114872
67	0xbcd3906f	-0.025825707
68	0xbbf51c8f	-0.007480211
69	0xbbd0306a	-0.0063534277
70	0xbbb41476	-0.005495603
71	0x3a83b8fd	0.0010049638
72	0xbb38c158	-0.0028191414
73	0x39858138	0.00025464012
74	0xbbbddf4a	-0.0057944404
75	0x3ce52716	0.02797274
76	0xbcb92943	-0.022602683
77	0x3c90ab9a	0.017659951
78	0xbc888a92	-0.016667638
79	0xbc4e2ade	-0.0125834625
80	0x3ce6effa	0.028190602
81	0xbc3ab606	-0.011395937
82	0xba587053	-0.00082564837
83	0xbad1a3de	-0.0015994271
84	0xbccf5406	-0.02530862
85	0x399b88fc	0.00029665965
86	0xbc8b6282	-0.017014746
87	0x3c0cf56f	0.008603438
88	0xbca20886	-0.019779455
89	0xbc6fef87	-0.01464451
90	0x3c014a7a	0.007891292
91	0xbc6aec3b	-0.014338548
92	0xbae9686e	-0.0017807612
93	0xbc98cdf7	-0.0186529
94	0xbc9b49f1	-0.018956156
95	0x3cea8f38	0.028632745
96	0xbc23cb67	-0.009997225
97	0xbc167a66	-0.0091844555
98	0xbc6caef0	-0.014446005
99	0x3b65b238	0.0035048854
100	0xbcb08de4	-0.021552034
101	0xbc61d72d	-0.013784212
102	0xbc664b9d	-0.014056114
103	0xbc2ee149	-0.010673829
104	0x3b562014	0.0032672929
105	0x3bd2069d	0.00640948
106	0xbc797f45	-0.015228097
107	0x3c432cdd	0.011912552
108	0xbc5f55b7	-0.013631276
109	0xbb2affb1	-0.0026092345
110	0xbb689310	-0.0035488047
111	0x3b49ca1f	0.003079064
112	0x3c10fe8e	0.008849753
113	0xbb987b37	-0.00465336
114	0xbaaf23db	-0.0013362126
115	0xbc4045ed	-0.011735422
116	0x3ae17933	0.0017202258
117	0x3cc23849	0.02370848
118	0xbc95f56d	-0.018305505
119	0x3c73bbb2	0.014876293
120	0x3c069ff7	0.0082168495
121	0xbb6f2f1a	-0.003649658
122	0xbc92d030	-0.017921537
123	0xbc276da7	-0.010219014
124	0xbb647216	-0.003485804
125	0x3bee73b5	0.007276977
126	0xbc949f89	-0.018142479
127	0xbb1e1a71	-0.0024124647
128	0xbdbbceb3	-0.09170284
129	0xbcc6a695	-0.024249354
130	0x3ca102c7	0.019654645
131	0x3cd323ea	0.025773961
132	0xbdc3c3a5	-0.095588006
133	0x3d90d76a	0.07072337
134	0xbc7e1684	-0.015508298
135	0xbdc6ec75	-0.09713069
136	0x3d3a33eb	0.04545967
137	0xbc0434e3	-0.00806925
138	0x3d9dacb2	0.07698955
139	0xbb9186d1	-0.00444112
140	0x3c932f20	0.017966807
141	0xbc4eaf1c	-0.0126149915
142	0x3b830aee	0.0039991057
143	0x3d145e2e	0.03622263
144	0xbd1ffe8d	-0.039061118
145	0x3b9a4dd2	0.004708984
146	0xbc575ae9	-0.013144233
147	0xbc3ce0c5	-0.011528199
148	0xbd08e919	-0.033425424
149	0xbde90d7a	-0.113795236
150	0x3dd2d106	0.10293774
151	0xbd5eeeac	-0.054426834
152	0x3c8ed718	0.017436549
153	0xbd780312	-0.060549803
154	0xbd399fe5	-0.045318503
155	0xbbb88784	-0.005631389
156	0xbc2e4066	-0.010635471
157	0xbd0c2497	-0.034214582
158	0xbb28e13d	-0.0025769018
159	0x3d5b17cf	0.053489503
160	0x3e02f6c0	0.1278944
161	0xbcd27a52	-0.025693092
162	0xbd64c0c6	-0.055847906
163	0xba1b13bf	-0.0005915723
164	0x3a0459b6	0.00050487684
165	0x3d8f8323	0.07007434
166	0xbd528f61	-0.051406268
167	0x3dc38e90	0.09548676
168	0x3d1ea300	0.038729668
169	0x3cf15f5e	0.02946442
170	0xba283db8	-0.0006417888
171	0xbdd3efce	-0.103484735
172	0x3cc06dae	0.0234898
173	0x3c91b69d	0.017787272
174	0x3d636abf	0.055521723
175	0xbca430a6	-0.020042729
176	0x3c9e0623	0.019290036
177	0xbd475981	-0.048669342
178	0x3c888436	0.016664606
179	0x3bf2b73b	0.0074070967
180	0x3cf90c2b	0.03040131
181	0xbcba5ab9	-0.022748338
182	0x3dab6ec8	0.08370739
183	0x3c1e907a	0.009678001
184	0x3ca0c868	0.019626811
185	0x3bf19413	0.007372388
186	0xbb434874	-0.0029797824
187	0xb905e84f	-0.0001277041
188	0xbd5d7cbc	-0.054074034
189	0x3d666982	0.056252964
190	0x3c4f595a	0.01265558
191	0xbcd323f5	-0.025773982
192	0x3dbc2034	0.0918583
193	0x3d79a3c5	0.0609472
194	0xbd706f41	-0.05869985
195	0x3d8c1387	0.06839662
196	0xbd126982	-0.03574515
197	0xbc832dd2	-0.01601306
198	0x3ca02e48	0.019553319
199	0xbd8e42d5	-0.06946341
200	0xbc3ee63f	-0.011651575
201	0x3e0a91b2	0.13532141
202	0x3c8f61a8	0.01750262
203	0x3d2b7254	0.04185708
204	0xbcc38b55	-0.02387015
205	0x3d49f67e	0.04930734
206	0x3e038de7	0.128471
207	0xbd25dfbc	-0.040496573
208	0x3d4e6177	0.05038592
209	0xbd0249c4	-0.03180863
210	0x3d56caf7	0.052439656
211	0x3bb46726	0.0055054603
212	0x3c4b35c9	0.01240296
213	0xbd1c1ac9	-0.03811148
214	0xbd711120	-0.058854222
215	0xbde11451	-0.10990203
216	0xbdc1cf46	-0.094633624
217	0x3b4fa660	0.003168486
218	0xbc8580af	-0.016296713
219	0x3ce2abc8	0.027669802
220	0xbb42abc7	-0.0029704438
221	0xbd38dfcc	-0.045135304
222	0xbcf4b80a	-0.029872913
223	0x3d228d4b	0.03968553
224	0x3d46c1aa	0.048524536
225	0x3d38433d	0.044986
226	0x3da18479	0.07886595
227	0x3d49f58f	0.04930645
228	0x39e3edaa	0.00043473887
229	0xbc6ce063	-0.014457795
230	0xbc197968	-0.009367324
231	0xbd1e1e3f	-0.038603064
232	0xbd8205af	-0.0634874
233	0xbc5345cf	-0.012895062
234	0xbcabd929	-0.020977573
235	0xbd7fe93e	-0.062478296
236	0x3b701cbf	0.0036638228
237	0x3c742817	0.014902136
238	0xbb7fed8d	-0.0039051503
239	0xbb51b316	-0.0031997613
240	0xbd66c928	-0.05634418
241	0xbc372adc	-0.011179652
242	0xbcd420b7	-0.025894506
243	0x3de616da	0.11234827
244	0xbc2e2796	-0.010629555
245	0xbd26e9d5	-0.040750343
246	0xbba65655	-0.0050762095
247	0xbd2d0315	-0.042239267
248	0xbc3ed976	-0.011648526
249	0xbd0ae068	-0.033905417
250	0xbbb86808	-0.005627636
251	0xbdae6063	-0.08514478
252	0x3cfb6152	0.030686054
253	0x3c511ba4	0.012762938
254	0x3ca8c2ff	0.020600794
255	0xbb22fa44	-0.0024868408

action_model._discrete_distribution.branches.1.bias f4 [3]
0	0xbc191b4d	-0.009344888
1	0x3c1a7af8	0.009428732
2	0xbb83c9f0	-0.0040218756
